<?xml version="1.0" ?>
<net name="torch-jit-export" version="11">
	<layers>
		<layer id="0" name="blur_image" type="Parameter" version="opset1">
			<data element_type="f32" shape="1,3,736,1312"/>
			<rt_info>
				<attribute name="fused_names" value="blur_image" version="0"/>
			</rt_info>
			<output>
				<port id="0" names="blur_image" precision="FP32">
					<dim>1</dim>
					<dim>3</dim>
					<dim>736</dim>
					<dim>1312</dim>
					<rt_info>
						<attribute layout="[N,C,H,W]" name="layout" version="0"/>
					</rt_info>
				</port>
			</output>
		</layer>
		<layer id="1" name="Constant_6473" type="Const" version="opset1">
			<data element_type="f32" offset="0" shape="1, 160, 1, 1" size="640"/>
			<output>
				<port id="0" precision="FP32">
					<dim>1</dim>
					<dim>160</dim>
					<dim>1</dim>
					<dim>1</dim>
				</port>
			</output>
		</layer>
		<layer id="2" name="Constant_6468" type="Const" version="opset1">
			<data element_type="f32" offset="640" shape="1, 576, 1, 1" size="2304"/>
			<output>
				<port id="0" precision="FP32">
					<dim>1</dim>
					<dim>576</dim>
					<dim>1</dim>
					<dim>1</dim>
				</port>
			</output>
		</layer>
		<layer id="3" name="Constant_6463" type="Const" version="opset1">
			<data element_type="f32" offset="2944" shape="1, 576, 1, 1" size="2304"/>
			<output>
				<port id="0" precision="FP32">
					<dim>1</dim>
					<dim>576</dim>
					<dim>1</dim>
					<dim>1</dim>
				</port>
			</output>
		</layer>
		<layer id="4" name="Constant_6428" type="Const" version="opset1">
			<data element_type="f32" offset="5248" shape="1, 96, 1, 1" size="384"/>
			<output>
				<port id="0" precision="FP32">
					<dim>1</dim>
					<dim>96</dim>
					<dim>1</dim>
					<dim>1</dim>
				</port>
			</output>
		</layer>
		<layer id="5" name="Constant_6423" type="Const" version="opset1">
			<data element_type="f32" offset="5632" shape="1, 384, 1, 1" size="1536"/>
			<output>
				<port id="0" precision="FP32">
					<dim>1</dim>
					<dim>384</dim>
					<dim>1</dim>
					<dim>1</dim>
				</port>
			</output>
		</layer>
		<layer id="6" name="Constant_6418" type="Const" version="opset1">
			<data element_type="f32" offset="7168" shape="1, 384, 1, 1" size="1536"/>
			<output>
				<port id="0" precision="FP32">
					<dim>1</dim>
					<dim>384</dim>
					<dim>1</dim>
					<dim>1</dim>
				</port>
			</output>
		</layer>
		<layer id="7" name="Constant_6368" type="Const" version="opset1">
			<data element_type="f32" offset="8704" shape="1, 64, 1, 1" size="256"/>
			<output>
				<port id="0" precision="FP32">
					<dim>1</dim>
					<dim>64</dim>
					<dim>1</dim>
					<dim>1</dim>
				</port>
			</output>
		</layer>
		<layer id="8" name="Constant_6363" type="Const" version="opset1">
			<data element_type="f32" offset="8960" shape="1, 192, 1, 1" size="768"/>
			<output>
				<port id="0" precision="FP32">
					<dim>1</dim>
					<dim>192</dim>
					<dim>1</dim>
					<dim>1</dim>
				</port>
			</output>
		</layer>
		<layer id="9" name="Constant_6358" type="Const" version="opset1">
			<data element_type="f32" offset="9728" shape="1, 192, 1, 1" size="768"/>
			<output>
				<port id="0" precision="FP32">
					<dim>1</dim>
					<dim>192</dim>
					<dim>1</dim>
					<dim>1</dim>
				</port>
			</output>
		</layer>
		<layer id="10" name="Constant_6323" type="Const" version="opset1">
			<data element_type="f32" offset="10496" shape="1, 32, 1, 1" size="128"/>
			<output>
				<port id="0" precision="FP32">
					<dim>1</dim>
					<dim>32</dim>
					<dim>1</dim>
					<dim>1</dim>
				</port>
			</output>
		</layer>
		<layer id="11" name="Constant_6318" type="Const" version="opset1">
			<data element_type="f32" offset="10624" shape="1, 144, 1, 1" size="576"/>
			<output>
				<port id="0" precision="FP32">
					<dim>1</dim>
					<dim>144</dim>
					<dim>1</dim>
					<dim>1</dim>
				</port>
			</output>
		</layer>
		<layer id="12" name="Constant_6313" type="Const" version="opset1">
			<data element_type="f32" offset="11200" shape="1, 144, 1, 1" size="576"/>
			<output>
				<port id="0" precision="FP32">
					<dim>1</dim>
					<dim>144</dim>
					<dim>1</dim>
					<dim>1</dim>
				</port>
			</output>
		</layer>
		<layer id="13" name="Constant_6293" type="Const" version="opset1">
			<data element_type="f32" offset="11776" shape="1, 24, 1, 1" size="96"/>
			<output>
				<port id="0" precision="FP32">
					<dim>1</dim>
					<dim>24</dim>
					<dim>1</dim>
					<dim>1</dim>
				</port>
			</output>
		</layer>
		<layer id="14" name="Constant_6288" type="Const" version="opset1">
			<data element_type="f32" offset="11872" shape="1, 96, 1, 1" size="384"/>
			<output>
				<port id="0" precision="FP32">
					<dim>1</dim>
					<dim>96</dim>
					<dim>1</dim>
					<dim>1</dim>
				</port>
			</output>
		</layer>
		<layer id="15" name="Constant_6283" type="Const" version="opset1">
			<data element_type="f32" offset="12256" shape="1, 96, 1, 1" size="384"/>
			<output>
				<port id="0" precision="FP32">
					<dim>1</dim>
					<dim>96</dim>
					<dim>1</dim>
					<dim>1</dim>
				</port>
			</output>
		</layer>
		<layer id="16" name="Constant_6278" type="Const" version="opset1">
			<data element_type="f32" offset="12640" shape="1, 16, 1, 1" size="64"/>
			<output>
				<port id="0" precision="FP32">
					<dim>1</dim>
					<dim>16</dim>
					<dim>1</dim>
					<dim>1</dim>
				</port>
			</output>
		</layer>
		<layer id="17" name="Constant_6273" type="Const" version="opset1">
			<data element_type="f32" offset="12704" shape="1, 32, 1, 1" size="128"/>
			<output>
				<port id="0" precision="FP32">
					<dim>1</dim>
					<dim>32</dim>
					<dim>1</dim>
					<dim>1</dim>
				</port>
			</output>
		</layer>
		<layer id="18" name="Constant_6268" type="Const" version="opset1">
			<data element_type="f32" offset="12832" shape="1, 32, 1, 1" size="128"/>
			<output>
				<port id="0" precision="FP32">
					<dim>1</dim>
					<dim>32</dim>
					<dim>1</dim>
					<dim>1</dim>
				</port>
			</output>
		</layer>
		<layer id="19" name="Range_3727" type="Const" version="opset1">
			<data element_type="i32" offset="12960" shape="3" size="12"/>
			<output>
				<port id="0" precision="I32">
					<dim>3</dim>
				</port>
			</output>
		</layer>
		<layer id="20" name="Constant_3728" type="Const" version="opset1">
			<data element_type="i32" offset="12972" shape="1" size="4"/>
			<rt_info>
				<attribute name="fused_names" value="Constant_3728" version="0"/>
			</rt_info>
			<output>
				<port id="0" precision="I32">
					<dim>1</dim>
				</port>
			</output>
		</layer>
		<layer id="21" name="Gather_3729" type="Gather" version="opset8">
			<data batch_dims="0"/>
			<rt_info>
				<attribute name="fused_names" value="Gather_3729, Range_3727" version="0"/>
				<attribute name="preprocessing" version="0"/>
			</rt_info>
			<input>
				<port id="0" precision="FP32">
					<dim>1</dim>
					<dim>3</dim>
					<dim>736</dim>
					<dim>1312</dim>
				</port>
				<port id="1" precision="I32">
					<dim>3</dim>
				</port>
				<port id="2" precision="I32">
					<dim>1</dim>
				</port>
			</input>
			<output>
				<port id="3" precision="FP32">
					<dim>1</dim>
					<dim>3</dim>
					<dim>736</dim>
					<dim>1312</dim>
				</port>
			</output>
		</layer>
		<layer id="22" name="Constant_6266" type="Const" version="opset1">
			<data element_type="f32" offset="12976" shape="1, 1, 1, 1" size="4"/>
			<output>
				<port id="0" precision="FP32">
					<dim>1</dim>
					<dim>1</dim>
					<dim>1</dim>
					<dim>1</dim>
				</port>
			</output>
		</layer>
		<layer id="23" name="Subtract_3731" type="Subtract" version="opset1">
			<data auto_broadcast="numpy"/>
			<rt_info>
				<attribute name="fused_names" value="Subtract_3731" version="0"/>
				<attribute name="preprocessing" version="0"/>
			</rt_info>
			<input>
				<port id="0" precision="FP32">
					<dim>1</dim>
					<dim>3</dim>
					<dim>736</dim>
					<dim>1312</dim>
				</port>
				<port id="1" precision="FP32">
					<dim>1</dim>
					<dim>1</dim>
					<dim>1</dim>
					<dim>1</dim>
				</port>
			</input>
			<output>
				<port id="2" precision="FP32">
					<dim>1</dim>
					<dim>3</dim>
					<dim>736</dim>
					<dim>1312</dim>
				</port>
			</output>
		</layer>
		<layer id="24" name="Constant_6267" type="Const" version="opset1">
			<data element_type="f32" offset="12980" shape="1, 1, 1, 1" size="4"/>
			<output>
				<port id="0" precision="FP32">
					<dim>1</dim>
					<dim>1</dim>
					<dim>1</dim>
					<dim>1</dim>
				</port>
			</output>
		</layer>
		<layer id="25" name="Divide_3733" type="Multiply" version="opset1">
			<data auto_broadcast="numpy"/>
			<rt_info>
				<attribute name="fused_names" value="Constant_3732, Divide_3733" version="0"/>
				<attribute name="preprocessing" version="0"/>
			</rt_info>
			<input>
				<port id="0" precision="FP32">
					<dim>1</dim>
					<dim>3</dim>
					<dim>736</dim>
					<dim>1312</dim>
				</port>
				<port id="1" precision="FP32">
					<dim>1</dim>
					<dim>1</dim>
					<dim>1</dim>
					<dim>1</dim>
				</port>
			</input>
			<output>
				<port id="2" precision="FP32">
					<dim>1</dim>
					<dim>3</dim>
					<dim>736</dim>
					<dim>1312</dim>
				</port>
			</output>
		</layer>
		<layer id="26" name="impl.module.fpn.features.0.0.weight" type="Const" version="opset1">
			<data element_type="f32" offset="12984" shape="32, 3, 3, 3" size="3456"/>
			<rt_info>
				<attribute name="fused_names" value="impl.module.fpn.features.0.0.weight" version="0"/>
			</rt_info>
			<output>
				<port id="0" names="impl.module.fpn.features.0.0.weight" precision="FP32">
					<dim>32</dim>
					<dim>3</dim>
					<dim>3</dim>
					<dim>3</dim>
				</port>
			</output>
		</layer>
		<layer id="27" name="197" type="Convolution" version="opset1">
			<data auto_pad="explicit" dilations="1, 1" pads_begin="1, 1" pads_end="1, 1" strides="2, 2"/>
			<rt_info>
				<attribute name="fused_names" value="197" version="0"/>
			</rt_info>
			<input>
				<port id="0" precision="FP32">
					<dim>1</dim>
					<dim>3</dim>
					<dim>736</dim>
					<dim>1312</dim>
				</port>
				<port id="1" precision="FP32">
					<dim>32</dim>
					<dim>3</dim>
					<dim>3</dim>
					<dim>3</dim>
				</port>
			</input>
			<output>
				<port id="2" names="197" precision="FP32">
					<dim>1</dim>
					<dim>32</dim>
					<dim>368</dim>
					<dim>656</dim>
				</port>
			</output>
		</layer>
		<layer id="28" name="Constant_221" type="Const" version="opset1">
			<data element_type="i64" offset="16440" shape="3" size="24"/>
			<rt_info>
				<attribute name="fused_names" value="Constant_221" version="0"/>
			</rt_info>
			<output>
				<port id="0" precision="I64">
					<dim>3</dim>
				</port>
			</output>
		</layer>
		<layer id="29" name="198" type="ReduceMean" version="opset1">
			<data keep_dims="false"/>
			<rt_info>
				<attribute name="fused_names" value="198" version="0"/>
			</rt_info>
			<input>
				<port id="0" precision="FP32">
					<dim>1</dim>
					<dim>32</dim>
					<dim>368</dim>
					<dim>656</dim>
				</port>
				<port id="1" precision="I64">
					<dim>3</dim>
				</port>
			</input>
			<output>
				<port id="2" names="198" precision="FP32">
					<dim>32</dim>
				</port>
			</output>
		</layer>
		<layer id="30" name="Constant_242" type="Const" version="opset1">
			<data element_type="i64" offset="16464" shape="1" size="8"/>
			<rt_info>
				<attribute name="fused_names" value="Constant_242" version="0"/>
			</rt_info>
			<output>
				<port id="0" precision="I64">
					<dim>1</dim>
				</port>
			</output>
		</layer>
		<layer id="31" name="218" type="Unsqueeze" version="opset1">
			<rt_info>
				<attribute name="fused_names" value="218" version="0"/>
			</rt_info>
			<input>
				<port id="0" precision="FP32">
					<dim>32</dim>
				</port>
				<port id="1" precision="I64">
					<dim>1</dim>
				</port>
			</input>
			<output>
				<port id="2" names="218" precision="FP32">
					<dim>32</dim>
					<dim>1</dim>
				</port>
			</output>
		</layer>
		<layer id="32" name="Constant_244" type="Const" version="opset1">
			<data element_type="i64" offset="16472" shape="1" size="8"/>
			<rt_info>
				<attribute name="fused_names" value="Constant_244" version="0"/>
			</rt_info>
			<output>
				<port id="0" precision="I64">
					<dim>1</dim>
				</port>
			</output>
		</layer>
		<layer id="33" name="219" type="Unsqueeze" version="opset1">
			<rt_info>
				<attribute name="fused_names" value="219" version="0"/>
			</rt_info>
			<input>
				<port id="0" precision="FP32">
					<dim>32</dim>
					<dim>1</dim>
				</port>
				<port id="1" precision="I64">
					<dim>1</dim>
				</port>
			</input>
			<output>
				<port id="2" names="219" precision="FP32">
					<dim>32</dim>
					<dim>1</dim>
					<dim>1</dim>
				</port>
			</output>
		</layer>
		<layer id="34" name="220" type="Subtract" version="opset1">
			<data auto_broadcast="numpy"/>
			<rt_info>
				<attribute name="fused_names" value="220" version="0"/>
			</rt_info>
			<input>
				<port id="0" precision="FP32">
					<dim>1</dim>
					<dim>32</dim>
					<dim>368</dim>
					<dim>656</dim>
				</port>
				<port id="1" precision="FP32">
					<dim>32</dim>
					<dim>1</dim>
					<dim>1</dim>
				</port>
			</input>
			<output>
				<port id="2" names="220" precision="FP32">
					<dim>1</dim>
					<dim>32</dim>
					<dim>368</dim>
					<dim>656</dim>
				</port>
			</output>
		</layer>
		<layer id="35" name="221" type="Multiply" version="opset1">
			<data auto_broadcast="numpy"/>
			<rt_info>
				<attribute name="fused_names" value="221" version="0"/>
			</rt_info>
			<input>
				<port id="0" precision="FP32">
					<dim>1</dim>
					<dim>32</dim>
					<dim>1</dim>
					<dim>1</dim>
				</port>
				<port id="1" precision="FP32">
					<dim>1</dim>
					<dim>32</dim>
					<dim>368</dim>
					<dim>656</dim>
				</port>
			</input>
			<output>
				<port id="2" names="221" precision="FP32">
					<dim>1</dim>
					<dim>32</dim>
					<dim>368</dim>
					<dim>656</dim>
				</port>
			</output>
		</layer>
		<layer id="36" name="Constant_6271" type="Const" version="opset1">
			<data element_type="f32" offset="16480" shape="1, 1, 1" size="4"/>
			<output>
				<port id="0" precision="FP32">
					<dim>1</dim>
					<dim>1</dim>
					<dim>1</dim>
				</port>
			</output>
		</layer>
		<layer id="37" name="Constant_223" type="Const" version="opset1">
			<data element_type="i64" offset="16440" shape="3" size="24"/>
			<rt_info>
				<attribute name="fused_names" value="Constant_223" version="0"/>
			</rt_info>
			<output>
				<port id="0" precision="I64">
					<dim>3</dim>
				</port>
			</output>
		</layer>
		<layer id="38" name="199" type="ReduceMean" version="opset1">
			<data keep_dims="true"/>
			<rt_info>
				<attribute name="fused_names" value="199" version="0"/>
			</rt_info>
			<input>
				<port id="0" precision="FP32">
					<dim>1</dim>
					<dim>32</dim>
					<dim>368</dim>
					<dim>656</dim>
				</port>
				<port id="1" precision="I64">
					<dim>3</dim>
				</port>
			</input>
			<output>
				<port id="2" names="199" precision="FP32">
					<dim>1</dim>
					<dim>32</dim>
					<dim>1</dim>
					<dim>1</dim>
				</port>
			</output>
		</layer>
		<layer id="39" name="200" type="Subtract" version="opset1">
			<data auto_broadcast="numpy"/>
			<rt_info>
				<attribute name="fused_names" value="200" version="0"/>
			</rt_info>
			<input>
				<port id="0" precision="FP32">
					<dim>1</dim>
					<dim>32</dim>
					<dim>368</dim>
					<dim>656</dim>
				</port>
				<port id="1" precision="FP32">
					<dim>1</dim>
					<dim>32</dim>
					<dim>1</dim>
					<dim>1</dim>
				</port>
			</input>
			<output>
				<port id="2" names="200" precision="FP32">
					<dim>1</dim>
					<dim>32</dim>
					<dim>368</dim>
					<dim>656</dim>
				</port>
			</output>
		</layer>
		<layer id="40" name="201" type="Multiply" version="opset1">
			<data auto_broadcast="numpy"/>
			<rt_info>
				<attribute name="fused_names" value="201" version="0"/>
			</rt_info>
			<input>
				<port id="0" precision="FP32">
					<dim>1</dim>
					<dim>32</dim>
					<dim>368</dim>
					<dim>656</dim>
				</port>
				<port id="1" precision="FP32">
					<dim>1</dim>
					<dim>32</dim>
					<dim>368</dim>
					<dim>656</dim>
				</port>
			</input>
			<output>
				<port id="2" names="201" precision="FP32">
					<dim>1</dim>
					<dim>32</dim>
					<dim>368</dim>
					<dim>656</dim>
				</port>
			</output>
		</layer>
		<layer id="41" name="Constant_227" type="Const" version="opset1">
			<data element_type="i64" offset="16440" shape="3" size="24"/>
			<rt_info>
				<attribute name="fused_names" value="Constant_227" version="0"/>
			</rt_info>
			<output>
				<port id="0" precision="I64">
					<dim>3</dim>
				</port>
			</output>
		</layer>
		<layer id="42" name="202" type="ReduceMean" version="opset1">
			<data keep_dims="false"/>
			<rt_info>
				<attribute name="fused_names" value="202" version="0"/>
			</rt_info>
			<input>
				<port id="0" precision="FP32">
					<dim>1</dim>
					<dim>32</dim>
					<dim>368</dim>
					<dim>656</dim>
				</port>
				<port id="1" precision="I64">
					<dim>3</dim>
				</port>
			</input>
			<output>
				<port id="2" names="202" precision="FP32">
					<dim>32</dim>
				</port>
			</output>
		</layer>
		<layer id="43" name="203" type="Sqrt" version="opset1">
			<rt_info>
				<attribute name="fused_names" value="203" version="0"/>
			</rt_info>
			<input>
				<port id="0" precision="FP32">
					<dim>32</dim>
				</port>
			</input>
			<output>
				<port id="1" names="203" precision="FP32">
					<dim>32</dim>
				</port>
			</output>
		</layer>
		<layer id="44" name="Constant_6269" type="Const" version="opset1">
			<data element_type="f32" offset="16484" shape="1" size="4"/>
			<output>
				<port id="0" precision="FP32">
					<dim>1</dim>
				</port>
			</output>
		</layer>
		<layer id="45" name="206" type="Power" version="opset1">
			<data auto_broadcast="numpy"/>
			<rt_info>
				<attribute name="fused_names" value="206" version="0"/>
			</rt_info>
			<input>
				<port id="0" precision="FP32">
					<dim>32</dim>
				</port>
				<port id="1" precision="FP32">
					<dim>1</dim>
				</port>
			</input>
			<output>
				<port id="2" names="206" precision="FP32">
					<dim>32</dim>
				</port>
			</output>
		</layer>
		<layer id="46" name="Constant_231" type="Const" version="opset1">
			<data element_type="i64" offset="16464" shape="1" size="8"/>
			<rt_info>
				<attribute name="fused_names" value="Constant_231" version="0"/>
			</rt_info>
			<output>
				<port id="0" precision="I64">
					<dim>1</dim>
				</port>
			</output>
		</layer>
		<layer id="47" name="207" type="Unsqueeze" version="opset1">
			<rt_info>
				<attribute name="fused_names" value="207" version="0"/>
			</rt_info>
			<input>
				<port id="0" precision="FP32">
					<dim>32</dim>
				</port>
				<port id="1" precision="I64">
					<dim>1</dim>
				</port>
			</input>
			<output>
				<port id="2" names="207" precision="FP32">
					<dim>32</dim>
					<dim>1</dim>
				</port>
			</output>
		</layer>
		<layer id="48" name="Constant_233" type="Const" version="opset1">
			<data element_type="i64" offset="16472" shape="1" size="8"/>
			<rt_info>
				<attribute name="fused_names" value="Constant_233" version="0"/>
			</rt_info>
			<output>
				<port id="0" precision="I64">
					<dim>1</dim>
				</port>
			</output>
		</layer>
		<layer id="49" name="208" type="Unsqueeze" version="opset1">
			<rt_info>
				<attribute name="fused_names" value="208" version="0"/>
			</rt_info>
			<input>
				<port id="0" precision="FP32">
					<dim>32</dim>
					<dim>1</dim>
				</port>
				<port id="1" precision="I64">
					<dim>1</dim>
				</port>
			</input>
			<output>
				<port id="2" names="208" precision="FP32">
					<dim>32</dim>
					<dim>1</dim>
					<dim>1</dim>
				</port>
			</output>
		</layer>
		<layer id="50" name="Constant_6270" type="Const" version="opset1">
			<data element_type="f32" offset="16488" shape="1, 1, 1" size="4"/>
			<output>
				<port id="0" precision="FP32">
					<dim>1</dim>
					<dim>1</dim>
					<dim>1</dim>
				</port>
			</output>
		</layer>
		<layer id="51" name="210" type="Add" version="opset1">
			<data auto_broadcast="numpy"/>
			<rt_info>
				<attribute name="fused_names" value="210" version="0"/>
			</rt_info>
			<input>
				<port id="0" precision="FP32">
					<dim>32</dim>
					<dim>1</dim>
					<dim>1</dim>
				</port>
				<port id="1" precision="FP32">
					<dim>1</dim>
					<dim>1</dim>
					<dim>1</dim>
				</port>
			</input>
			<output>
				<port id="2" names="210" precision="FP32">
					<dim>32</dim>
					<dim>1</dim>
					<dim>1</dim>
				</port>
			</output>
		</layer>
		<layer id="52" name="211" type="Sqrt" version="opset1">
			<rt_info>
				<attribute name="fused_names" value="211" version="0"/>
			</rt_info>
			<input>
				<port id="0" precision="FP32">
					<dim>32</dim>
					<dim>1</dim>
					<dim>1</dim>
				</port>
			</input>
			<output>
				<port id="1" names="211" precision="FP32">
					<dim>32</dim>
					<dim>1</dim>
					<dim>1</dim>
				</port>
			</output>
		</layer>
		<layer id="53" name="213" type="Divide" version="opset1">
			<data auto_broadcast="numpy" m_pythondiv="true"/>
			<rt_info>
				<attribute name="fused_names" value="213, 215" version="0"/>
			</rt_info>
			<input>
				<port id="0" precision="FP32">
					<dim>1</dim>
					<dim>1</dim>
					<dim>1</dim>
				</port>
				<port id="1" precision="FP32">
					<dim>32</dim>
					<dim>1</dim>
					<dim>1</dim>
				</port>
			</input>
			<output>
				<port id="2" names="213,215" precision="FP32">
					<dim>32</dim>
					<dim>1</dim>
					<dim>1</dim>
				</port>
			</output>
		</layer>
		<layer id="54" name="222" type="Multiply" version="opset1">
			<data auto_broadcast="numpy"/>
			<rt_info>
				<attribute name="fused_names" value="222" version="0"/>
			</rt_info>
			<input>
				<port id="0" precision="FP32">
					<dim>1</dim>
					<dim>32</dim>
					<dim>368</dim>
					<dim>656</dim>
				</port>
				<port id="1" precision="FP32">
					<dim>32</dim>
					<dim>1</dim>
					<dim>1</dim>
				</port>
			</input>
			<output>
				<port id="2" names="222" precision="FP32">
					<dim>1</dim>
					<dim>32</dim>
					<dim>368</dim>
					<dim>656</dim>
				</port>
			</output>
		</layer>
		<layer id="55" name="Constant_6272" type="Const" version="opset1">
			<data element_type="f32" offset="16492" shape="1, 32, 1, 1" size="128"/>
			<output>
				<port id="0" precision="FP32">
					<dim>1</dim>
					<dim>32</dim>
					<dim>1</dim>
					<dim>1</dim>
				</port>
			</output>
		</layer>
		<layer id="56" name="225" type="Add" version="opset1">
			<data auto_broadcast="numpy"/>
			<rt_info>
				<attribute name="fused_names" value="225" version="0"/>
			</rt_info>
			<input>
				<port id="0" precision="FP32">
					<dim>1</dim>
					<dim>32</dim>
					<dim>368</dim>
					<dim>656</dim>
				</port>
				<port id="1" precision="FP32">
					<dim>1</dim>
					<dim>32</dim>
					<dim>1</dim>
					<dim>1</dim>
				</port>
			</input>
			<output>
				<port id="2" names="225" precision="FP32">
					<dim>1</dim>
					<dim>32</dim>
					<dim>368</dim>
					<dim>656</dim>
				</port>
			</output>
		</layer>
		<layer id="57" name="228" type="Clamp" version="opset1">
			<data max="6" min="0"/>
			<rt_info>
				<attribute name="fused_names" value="228, Maximum_252" version="0"/>
			</rt_info>
			<input>
				<port id="0" precision="FP32">
					<dim>1</dim>
					<dim>32</dim>
					<dim>368</dim>
					<dim>656</dim>
				</port>
			</input>
			<output>
				<port id="1" names="228" precision="FP32">
					<dim>1</dim>
					<dim>32</dim>
					<dim>368</dim>
					<dim>656</dim>
				</port>
			</output>
		</layer>
		<layer id="58" name="Reshape_262" type="Const" version="opset1">
			<data element_type="f32" offset="16620" shape="32, 1, 1, 3, 3" size="1152"/>
			<output>
				<port id="0" precision="FP32">
					<dim>32</dim>
					<dim>1</dim>
					<dim>1</dim>
					<dim>3</dim>
					<dim>3</dim>
				</port>
			</output>
		</layer>
		<layer id="59" name="229" type="GroupConvolution" version="opset1">
			<data auto_pad="explicit" dilations="1, 1" pads_begin="1, 1" pads_end="1, 1" strides="1, 1"/>
			<rt_info>
				<attribute name="fused_names" value="229, Reshape_262" version="0"/>
			</rt_info>
			<input>
				<port id="0" precision="FP32">
					<dim>1</dim>
					<dim>32</dim>
					<dim>368</dim>
					<dim>656</dim>
				</port>
				<port id="1" precision="FP32">
					<dim>32</dim>
					<dim>1</dim>
					<dim>1</dim>
					<dim>3</dim>
					<dim>3</dim>
				</port>
			</input>
			<output>
				<port id="2" names="229" precision="FP32">
					<dim>1</dim>
					<dim>32</dim>
					<dim>368</dim>
					<dim>656</dim>
				</port>
			</output>
		</layer>
		<layer id="60" name="Constant_329" type="Const" version="opset1">
			<data element_type="i64" offset="16440" shape="3" size="24"/>
			<rt_info>
				<attribute name="fused_names" value="Constant_329" version="0"/>
			</rt_info>
			<output>
				<port id="0" precision="I64">
					<dim>3</dim>
				</port>
			</output>
		</layer>
		<layer id="61" name="230" type="ReduceMean" version="opset1">
			<data keep_dims="false"/>
			<rt_info>
				<attribute name="fused_names" value="230" version="0"/>
			</rt_info>
			<input>
				<port id="0" precision="FP32">
					<dim>1</dim>
					<dim>32</dim>
					<dim>368</dim>
					<dim>656</dim>
				</port>
				<port id="1" precision="I64">
					<dim>3</dim>
				</port>
			</input>
			<output>
				<port id="2" names="230" precision="FP32">
					<dim>32</dim>
				</port>
			</output>
		</layer>
		<layer id="62" name="Constant_350" type="Const" version="opset1">
			<data element_type="i64" offset="16464" shape="1" size="8"/>
			<rt_info>
				<attribute name="fused_names" value="Constant_350" version="0"/>
			</rt_info>
			<output>
				<port id="0" precision="I64">
					<dim>1</dim>
				</port>
			</output>
		</layer>
		<layer id="63" name="250" type="Unsqueeze" version="opset1">
			<rt_info>
				<attribute name="fused_names" value="250" version="0"/>
			</rt_info>
			<input>
				<port id="0" precision="FP32">
					<dim>32</dim>
				</port>
				<port id="1" precision="I64">
					<dim>1</dim>
				</port>
			</input>
			<output>
				<port id="2" names="250" precision="FP32">
					<dim>32</dim>
					<dim>1</dim>
				</port>
			</output>
		</layer>
		<layer id="64" name="Constant_352" type="Const" version="opset1">
			<data element_type="i64" offset="16472" shape="1" size="8"/>
			<rt_info>
				<attribute name="fused_names" value="Constant_352" version="0"/>
			</rt_info>
			<output>
				<port id="0" precision="I64">
					<dim>1</dim>
				</port>
			</output>
		</layer>
		<layer id="65" name="251" type="Unsqueeze" version="opset1">
			<rt_info>
				<attribute name="fused_names" value="251" version="0"/>
			</rt_info>
			<input>
				<port id="0" precision="FP32">
					<dim>32</dim>
					<dim>1</dim>
				</port>
				<port id="1" precision="I64">
					<dim>1</dim>
				</port>
			</input>
			<output>
				<port id="2" names="251" precision="FP32">
					<dim>32</dim>
					<dim>1</dim>
					<dim>1</dim>
				</port>
			</output>
		</layer>
		<layer id="66" name="252" type="Subtract" version="opset1">
			<data auto_broadcast="numpy"/>
			<rt_info>
				<attribute name="fused_names" value="252" version="0"/>
			</rt_info>
			<input>
				<port id="0" precision="FP32">
					<dim>1</dim>
					<dim>32</dim>
					<dim>368</dim>
					<dim>656</dim>
				</port>
				<port id="1" precision="FP32">
					<dim>32</dim>
					<dim>1</dim>
					<dim>1</dim>
				</port>
			</input>
			<output>
				<port id="2" names="252" precision="FP32">
					<dim>1</dim>
					<dim>32</dim>
					<dim>368</dim>
					<dim>656</dim>
				</port>
			</output>
		</layer>
		<layer id="67" name="253" type="Multiply" version="opset1">
			<data auto_broadcast="numpy"/>
			<rt_info>
				<attribute name="fused_names" value="253" version="0"/>
			</rt_info>
			<input>
				<port id="0" precision="FP32">
					<dim>1</dim>
					<dim>32</dim>
					<dim>1</dim>
					<dim>1</dim>
				</port>
				<port id="1" precision="FP32">
					<dim>1</dim>
					<dim>32</dim>
					<dim>368</dim>
					<dim>656</dim>
				</port>
			</input>
			<output>
				<port id="2" names="253" precision="FP32">
					<dim>1</dim>
					<dim>32</dim>
					<dim>368</dim>
					<dim>656</dim>
				</port>
			</output>
		</layer>
		<layer id="68" name="Constant_6276" type="Const" version="opset1">
			<data element_type="f32" offset="16480" shape="1, 1, 1" size="4"/>
			<output>
				<port id="0" precision="FP32">
					<dim>1</dim>
					<dim>1</dim>
					<dim>1</dim>
				</port>
			</output>
		</layer>
		<layer id="69" name="Constant_331" type="Const" version="opset1">
			<data element_type="i64" offset="16440" shape="3" size="24"/>
			<rt_info>
				<attribute name="fused_names" value="Constant_331" version="0"/>
			</rt_info>
			<output>
				<port id="0" precision="I64">
					<dim>3</dim>
				</port>
			</output>
		</layer>
		<layer id="70" name="231" type="ReduceMean" version="opset1">
			<data keep_dims="true"/>
			<rt_info>
				<attribute name="fused_names" value="231" version="0"/>
			</rt_info>
			<input>
				<port id="0" precision="FP32">
					<dim>1</dim>
					<dim>32</dim>
					<dim>368</dim>
					<dim>656</dim>
				</port>
				<port id="1" precision="I64">
					<dim>3</dim>
				</port>
			</input>
			<output>
				<port id="2" names="231" precision="FP32">
					<dim>1</dim>
					<dim>32</dim>
					<dim>1</dim>
					<dim>1</dim>
				</port>
			</output>
		</layer>
		<layer id="71" name="232" type="Subtract" version="opset1">
			<data auto_broadcast="numpy"/>
			<rt_info>
				<attribute name="fused_names" value="232" version="0"/>
			</rt_info>
			<input>
				<port id="0" precision="FP32">
					<dim>1</dim>
					<dim>32</dim>
					<dim>368</dim>
					<dim>656</dim>
				</port>
				<port id="1" precision="FP32">
					<dim>1</dim>
					<dim>32</dim>
					<dim>1</dim>
					<dim>1</dim>
				</port>
			</input>
			<output>
				<port id="2" names="232" precision="FP32">
					<dim>1</dim>
					<dim>32</dim>
					<dim>368</dim>
					<dim>656</dim>
				</port>
			</output>
		</layer>
		<layer id="72" name="233" type="Multiply" version="opset1">
			<data auto_broadcast="numpy"/>
			<rt_info>
				<attribute name="fused_names" value="233" version="0"/>
			</rt_info>
			<input>
				<port id="0" precision="FP32">
					<dim>1</dim>
					<dim>32</dim>
					<dim>368</dim>
					<dim>656</dim>
				</port>
				<port id="1" precision="FP32">
					<dim>1</dim>
					<dim>32</dim>
					<dim>368</dim>
					<dim>656</dim>
				</port>
			</input>
			<output>
				<port id="2" names="233" precision="FP32">
					<dim>1</dim>
					<dim>32</dim>
					<dim>368</dim>
					<dim>656</dim>
				</port>
			</output>
		</layer>
		<layer id="73" name="Constant_335" type="Const" version="opset1">
			<data element_type="i64" offset="16440" shape="3" size="24"/>
			<rt_info>
				<attribute name="fused_names" value="Constant_335" version="0"/>
			</rt_info>
			<output>
				<port id="0" precision="I64">
					<dim>3</dim>
				</port>
			</output>
		</layer>
		<layer id="74" name="234" type="ReduceMean" version="opset1">
			<data keep_dims="false"/>
			<rt_info>
				<attribute name="fused_names" value="234" version="0"/>
			</rt_info>
			<input>
				<port id="0" precision="FP32">
					<dim>1</dim>
					<dim>32</dim>
					<dim>368</dim>
					<dim>656</dim>
				</port>
				<port id="1" precision="I64">
					<dim>3</dim>
				</port>
			</input>
			<output>
				<port id="2" names="234" precision="FP32">
					<dim>32</dim>
				</port>
			</output>
		</layer>
		<layer id="75" name="235" type="Sqrt" version="opset1">
			<rt_info>
				<attribute name="fused_names" value="235" version="0"/>
			</rt_info>
			<input>
				<port id="0" precision="FP32">
					<dim>32</dim>
				</port>
			</input>
			<output>
				<port id="1" names="235" precision="FP32">
					<dim>32</dim>
				</port>
			</output>
		</layer>
		<layer id="76" name="Constant_6274" type="Const" version="opset1">
			<data element_type="f32" offset="16484" shape="1" size="4"/>
			<output>
				<port id="0" precision="FP32">
					<dim>1</dim>
				</port>
			</output>
		</layer>
		<layer id="77" name="238" type="Power" version="opset1">
			<data auto_broadcast="numpy"/>
			<rt_info>
				<attribute name="fused_names" value="238" version="0"/>
			</rt_info>
			<input>
				<port id="0" precision="FP32">
					<dim>32</dim>
				</port>
				<port id="1" precision="FP32">
					<dim>1</dim>
				</port>
			</input>
			<output>
				<port id="2" names="238" precision="FP32">
					<dim>32</dim>
				</port>
			</output>
		</layer>
		<layer id="78" name="Constant_339" type="Const" version="opset1">
			<data element_type="i64" offset="16464" shape="1" size="8"/>
			<rt_info>
				<attribute name="fused_names" value="Constant_339" version="0"/>
			</rt_info>
			<output>
				<port id="0" precision="I64">
					<dim>1</dim>
				</port>
			</output>
		</layer>
		<layer id="79" name="239" type="Unsqueeze" version="opset1">
			<rt_info>
				<attribute name="fused_names" value="239" version="0"/>
			</rt_info>
			<input>
				<port id="0" precision="FP32">
					<dim>32</dim>
				</port>
				<port id="1" precision="I64">
					<dim>1</dim>
				</port>
			</input>
			<output>
				<port id="2" names="239" precision="FP32">
					<dim>32</dim>
					<dim>1</dim>
				</port>
			</output>
		</layer>
		<layer id="80" name="Constant_341" type="Const" version="opset1">
			<data element_type="i64" offset="16472" shape="1" size="8"/>
			<rt_info>
				<attribute name="fused_names" value="Constant_341" version="0"/>
			</rt_info>
			<output>
				<port id="0" precision="I64">
					<dim>1</dim>
				</port>
			</output>
		</layer>
		<layer id="81" name="240" type="Unsqueeze" version="opset1">
			<rt_info>
				<attribute name="fused_names" value="240" version="0"/>
			</rt_info>
			<input>
				<port id="0" precision="FP32">
					<dim>32</dim>
					<dim>1</dim>
				</port>
				<port id="1" precision="I64">
					<dim>1</dim>
				</port>
			</input>
			<output>
				<port id="2" names="240" precision="FP32">
					<dim>32</dim>
					<dim>1</dim>
					<dim>1</dim>
				</port>
			</output>
		</layer>
		<layer id="82" name="Constant_6275" type="Const" version="opset1">
			<data element_type="f32" offset="16488" shape="1, 1, 1" size="4"/>
			<output>
				<port id="0" precision="FP32">
					<dim>1</dim>
					<dim>1</dim>
					<dim>1</dim>
				</port>
			</output>
		</layer>
		<layer id="83" name="242" type="Add" version="opset1">
			<data auto_broadcast="numpy"/>
			<rt_info>
				<attribute name="fused_names" value="242" version="0"/>
			</rt_info>
			<input>
				<port id="0" precision="FP32">
					<dim>32</dim>
					<dim>1</dim>
					<dim>1</dim>
				</port>
				<port id="1" precision="FP32">
					<dim>1</dim>
					<dim>1</dim>
					<dim>1</dim>
				</port>
			</input>
			<output>
				<port id="2" names="242" precision="FP32">
					<dim>32</dim>
					<dim>1</dim>
					<dim>1</dim>
				</port>
			</output>
		</layer>
		<layer id="84" name="243" type="Sqrt" version="opset1">
			<rt_info>
				<attribute name="fused_names" value="243" version="0"/>
			</rt_info>
			<input>
				<port id="0" precision="FP32">
					<dim>32</dim>
					<dim>1</dim>
					<dim>1</dim>
				</port>
			</input>
			<output>
				<port id="1" names="243" precision="FP32">
					<dim>32</dim>
					<dim>1</dim>
					<dim>1</dim>
				</port>
			</output>
		</layer>
		<layer id="85" name="245" type="Divide" version="opset1">
			<data auto_broadcast="numpy" m_pythondiv="true"/>
			<rt_info>
				<attribute name="fused_names" value="245, 247" version="0"/>
			</rt_info>
			<input>
				<port id="0" precision="FP32">
					<dim>1</dim>
					<dim>1</dim>
					<dim>1</dim>
				</port>
				<port id="1" precision="FP32">
					<dim>32</dim>
					<dim>1</dim>
					<dim>1</dim>
				</port>
			</input>
			<output>
				<port id="2" names="245,247" precision="FP32">
					<dim>32</dim>
					<dim>1</dim>
					<dim>1</dim>
				</port>
			</output>
		</layer>
		<layer id="86" name="254" type="Multiply" version="opset1">
			<data auto_broadcast="numpy"/>
			<rt_info>
				<attribute name="fused_names" value="254" version="0"/>
			</rt_info>
			<input>
				<port id="0" precision="FP32">
					<dim>1</dim>
					<dim>32</dim>
					<dim>368</dim>
					<dim>656</dim>
				</port>
				<port id="1" precision="FP32">
					<dim>32</dim>
					<dim>1</dim>
					<dim>1</dim>
				</port>
			</input>
			<output>
				<port id="2" names="254" precision="FP32">
					<dim>1</dim>
					<dim>32</dim>
					<dim>368</dim>
					<dim>656</dim>
				</port>
			</output>
		</layer>
		<layer id="87" name="Constant_6277" type="Const" version="opset1">
			<data element_type="f32" offset="17772" shape="1, 32, 1, 1" size="128"/>
			<output>
				<port id="0" precision="FP32">
					<dim>1</dim>
					<dim>32</dim>
					<dim>1</dim>
					<dim>1</dim>
				</port>
			</output>
		</layer>
		<layer id="88" name="257" type="Add" version="opset1">
			<data auto_broadcast="numpy"/>
			<rt_info>
				<attribute name="fused_names" value="257" version="0"/>
			</rt_info>
			<input>
				<port id="0" precision="FP32">
					<dim>1</dim>
					<dim>32</dim>
					<dim>368</dim>
					<dim>656</dim>
				</port>
				<port id="1" precision="FP32">
					<dim>1</dim>
					<dim>32</dim>
					<dim>1</dim>
					<dim>1</dim>
				</port>
			</input>
			<output>
				<port id="2" names="257" precision="FP32">
					<dim>1</dim>
					<dim>32</dim>
					<dim>368</dim>
					<dim>656</dim>
				</port>
			</output>
		</layer>
		<layer id="89" name="260" type="Clamp" version="opset1">
			<data max="6" min="0"/>
			<rt_info>
				<attribute name="fused_names" value="260, Maximum_360" version="0"/>
			</rt_info>
			<input>
				<port id="0" precision="FP32">
					<dim>1</dim>
					<dim>32</dim>
					<dim>368</dim>
					<dim>656</dim>
				</port>
			</input>
			<output>
				<port id="1" names="260" precision="FP32">
					<dim>1</dim>
					<dim>32</dim>
					<dim>368</dim>
					<dim>656</dim>
				</port>
			</output>
		</layer>
		<layer id="90" name="impl.module.fpn.features.1.conv.3.weight" type="Const" version="opset1">
			<data element_type="f32" offset="17900" shape="16, 32, 1, 1" size="2048"/>
			<rt_info>
				<attribute name="fused_names" value="impl.module.fpn.features.1.conv.3.weight" version="0"/>
			</rt_info>
			<output>
				<port id="0" names="impl.module.fpn.features.1.conv.3.weight" precision="FP32">
					<dim>16</dim>
					<dim>32</dim>
					<dim>1</dim>
					<dim>1</dim>
				</port>
			</output>
		</layer>
		<layer id="91" name="261" type="Convolution" version="opset1">
			<data auto_pad="explicit" dilations="1, 1" pads_begin="0, 0" pads_end="0, 0" strides="1, 1"/>
			<rt_info>
				<attribute name="fused_names" value="261" version="0"/>
			</rt_info>
			<input>
				<port id="0" precision="FP32">
					<dim>1</dim>
					<dim>32</dim>
					<dim>368</dim>
					<dim>656</dim>
				</port>
				<port id="1" precision="FP32">
					<dim>16</dim>
					<dim>32</dim>
					<dim>1</dim>
					<dim>1</dim>
				</port>
			</input>
			<output>
				<port id="2" names="261" precision="FP32">
					<dim>1</dim>
					<dim>16</dim>
					<dim>368</dim>
					<dim>656</dim>
				</port>
			</output>
		</layer>
		<layer id="92" name="Constant_364" type="Const" version="opset1">
			<data element_type="i64" offset="16440" shape="3" size="24"/>
			<rt_info>
				<attribute name="fused_names" value="Constant_364" version="0"/>
			</rt_info>
			<output>
				<port id="0" precision="I64">
					<dim>3</dim>
				</port>
			</output>
		</layer>
		<layer id="93" name="262" type="ReduceMean" version="opset1">
			<data keep_dims="false"/>
			<rt_info>
				<attribute name="fused_names" value="262" version="0"/>
			</rt_info>
			<input>
				<port id="0" precision="FP32">
					<dim>1</dim>
					<dim>16</dim>
					<dim>368</dim>
					<dim>656</dim>
				</port>
				<port id="1" precision="I64">
					<dim>3</dim>
				</port>
			</input>
			<output>
				<port id="2" names="262" precision="FP32">
					<dim>16</dim>
				</port>
			</output>
		</layer>
		<layer id="94" name="Constant_385" type="Const" version="opset1">
			<data element_type="i64" offset="16464" shape="1" size="8"/>
			<rt_info>
				<attribute name="fused_names" value="Constant_385" version="0"/>
			</rt_info>
			<output>
				<port id="0" precision="I64">
					<dim>1</dim>
				</port>
			</output>
		</layer>
		<layer id="95" name="282" type="Unsqueeze" version="opset1">
			<rt_info>
				<attribute name="fused_names" value="282" version="0"/>
			</rt_info>
			<input>
				<port id="0" precision="FP32">
					<dim>16</dim>
				</port>
				<port id="1" precision="I64">
					<dim>1</dim>
				</port>
			</input>
			<output>
				<port id="2" names="282" precision="FP32">
					<dim>16</dim>
					<dim>1</dim>
				</port>
			</output>
		</layer>
		<layer id="96" name="Constant_387" type="Const" version="opset1">
			<data element_type="i64" offset="16472" shape="1" size="8"/>
			<rt_info>
				<attribute name="fused_names" value="Constant_387" version="0"/>
			</rt_info>
			<output>
				<port id="0" precision="I64">
					<dim>1</dim>
				</port>
			</output>
		</layer>
		<layer id="97" name="283" type="Unsqueeze" version="opset1">
			<rt_info>
				<attribute name="fused_names" value="283" version="0"/>
			</rt_info>
			<input>
				<port id="0" precision="FP32">
					<dim>16</dim>
					<dim>1</dim>
				</port>
				<port id="1" precision="I64">
					<dim>1</dim>
				</port>
			</input>
			<output>
				<port id="2" names="283" precision="FP32">
					<dim>16</dim>
					<dim>1</dim>
					<dim>1</dim>
				</port>
			</output>
		</layer>
		<layer id="98" name="284" type="Subtract" version="opset1">
			<data auto_broadcast="numpy"/>
			<rt_info>
				<attribute name="fused_names" value="284" version="0"/>
			</rt_info>
			<input>
				<port id="0" precision="FP32">
					<dim>1</dim>
					<dim>16</dim>
					<dim>368</dim>
					<dim>656</dim>
				</port>
				<port id="1" precision="FP32">
					<dim>16</dim>
					<dim>1</dim>
					<dim>1</dim>
				</port>
			</input>
			<output>
				<port id="2" names="284" precision="FP32">
					<dim>1</dim>
					<dim>16</dim>
					<dim>368</dim>
					<dim>656</dim>
				</port>
			</output>
		</layer>
		<layer id="99" name="285" type="Multiply" version="opset1">
			<data auto_broadcast="numpy"/>
			<rt_info>
				<attribute name="fused_names" value="285" version="0"/>
			</rt_info>
			<input>
				<port id="0" precision="FP32">
					<dim>1</dim>
					<dim>16</dim>
					<dim>1</dim>
					<dim>1</dim>
				</port>
				<port id="1" precision="FP32">
					<dim>1</dim>
					<dim>16</dim>
					<dim>368</dim>
					<dim>656</dim>
				</port>
			</input>
			<output>
				<port id="2" names="285" precision="FP32">
					<dim>1</dim>
					<dim>16</dim>
					<dim>368</dim>
					<dim>656</dim>
				</port>
			</output>
		</layer>
		<layer id="100" name="Constant_6281" type="Const" version="opset1">
			<data element_type="f32" offset="16480" shape="1, 1, 1" size="4"/>
			<output>
				<port id="0" precision="FP32">
					<dim>1</dim>
					<dim>1</dim>
					<dim>1</dim>
				</port>
			</output>
		</layer>
		<layer id="101" name="Constant_366" type="Const" version="opset1">
			<data element_type="i64" offset="16440" shape="3" size="24"/>
			<rt_info>
				<attribute name="fused_names" value="Constant_366" version="0"/>
			</rt_info>
			<output>
				<port id="0" precision="I64">
					<dim>3</dim>
				</port>
			</output>
		</layer>
		<layer id="102" name="263" type="ReduceMean" version="opset1">
			<data keep_dims="true"/>
			<rt_info>
				<attribute name="fused_names" value="263" version="0"/>
			</rt_info>
			<input>
				<port id="0" precision="FP32">
					<dim>1</dim>
					<dim>16</dim>
					<dim>368</dim>
					<dim>656</dim>
				</port>
				<port id="1" precision="I64">
					<dim>3</dim>
				</port>
			</input>
			<output>
				<port id="2" names="263" precision="FP32">
					<dim>1</dim>
					<dim>16</dim>
					<dim>1</dim>
					<dim>1</dim>
				</port>
			</output>
		</layer>
		<layer id="103" name="264" type="Subtract" version="opset1">
			<data auto_broadcast="numpy"/>
			<rt_info>
				<attribute name="fused_names" value="264" version="0"/>
			</rt_info>
			<input>
				<port id="0" precision="FP32">
					<dim>1</dim>
					<dim>16</dim>
					<dim>368</dim>
					<dim>656</dim>
				</port>
				<port id="1" precision="FP32">
					<dim>1</dim>
					<dim>16</dim>
					<dim>1</dim>
					<dim>1</dim>
				</port>
			</input>
			<output>
				<port id="2" names="264" precision="FP32">
					<dim>1</dim>
					<dim>16</dim>
					<dim>368</dim>
					<dim>656</dim>
				</port>
			</output>
		</layer>
		<layer id="104" name="265" type="Multiply" version="opset1">
			<data auto_broadcast="numpy"/>
			<rt_info>
				<attribute name="fused_names" value="265" version="0"/>
			</rt_info>
			<input>
				<port id="0" precision="FP32">
					<dim>1</dim>
					<dim>16</dim>
					<dim>368</dim>
					<dim>656</dim>
				</port>
				<port id="1" precision="FP32">
					<dim>1</dim>
					<dim>16</dim>
					<dim>368</dim>
					<dim>656</dim>
				</port>
			</input>
			<output>
				<port id="2" names="265" precision="FP32">
					<dim>1</dim>
					<dim>16</dim>
					<dim>368</dim>
					<dim>656</dim>
				</port>
			</output>
		</layer>
		<layer id="105" name="Constant_370" type="Const" version="opset1">
			<data element_type="i64" offset="16440" shape="3" size="24"/>
			<rt_info>
				<attribute name="fused_names" value="Constant_370" version="0"/>
			</rt_info>
			<output>
				<port id="0" precision="I64">
					<dim>3</dim>
				</port>
			</output>
		</layer>
		<layer id="106" name="266" type="ReduceMean" version="opset1">
			<data keep_dims="false"/>
			<rt_info>
				<attribute name="fused_names" value="266" version="0"/>
			</rt_info>
			<input>
				<port id="0" precision="FP32">
					<dim>1</dim>
					<dim>16</dim>
					<dim>368</dim>
					<dim>656</dim>
				</port>
				<port id="1" precision="I64">
					<dim>3</dim>
				</port>
			</input>
			<output>
				<port id="2" names="266" precision="FP32">
					<dim>16</dim>
				</port>
			</output>
		</layer>
		<layer id="107" name="267" type="Sqrt" version="opset1">
			<rt_info>
				<attribute name="fused_names" value="267" version="0"/>
			</rt_info>
			<input>
				<port id="0" precision="FP32">
					<dim>16</dim>
				</port>
			</input>
			<output>
				<port id="1" names="267" precision="FP32">
					<dim>16</dim>
				</port>
			</output>
		</layer>
		<layer id="108" name="Constant_6279" type="Const" version="opset1">
			<data element_type="f32" offset="16484" shape="1" size="4"/>
			<output>
				<port id="0" precision="FP32">
					<dim>1</dim>
				</port>
			</output>
		</layer>
		<layer id="109" name="270" type="Power" version="opset1">
			<data auto_broadcast="numpy"/>
			<rt_info>
				<attribute name="fused_names" value="270" version="0"/>
			</rt_info>
			<input>
				<port id="0" precision="FP32">
					<dim>16</dim>
				</port>
				<port id="1" precision="FP32">
					<dim>1</dim>
				</port>
			</input>
			<output>
				<port id="2" names="270" precision="FP32">
					<dim>16</dim>
				</port>
			</output>
		</layer>
		<layer id="110" name="Constant_374" type="Const" version="opset1">
			<data element_type="i64" offset="16464" shape="1" size="8"/>
			<rt_info>
				<attribute name="fused_names" value="Constant_374" version="0"/>
			</rt_info>
			<output>
				<port id="0" precision="I64">
					<dim>1</dim>
				</port>
			</output>
		</layer>
		<layer id="111" name="271" type="Unsqueeze" version="opset1">
			<rt_info>
				<attribute name="fused_names" value="271" version="0"/>
			</rt_info>
			<input>
				<port id="0" precision="FP32">
					<dim>16</dim>
				</port>
				<port id="1" precision="I64">
					<dim>1</dim>
				</port>
			</input>
			<output>
				<port id="2" names="271" precision="FP32">
					<dim>16</dim>
					<dim>1</dim>
				</port>
			</output>
		</layer>
		<layer id="112" name="Constant_376" type="Const" version="opset1">
			<data element_type="i64" offset="16472" shape="1" size="8"/>
			<rt_info>
				<attribute name="fused_names" value="Constant_376" version="0"/>
			</rt_info>
			<output>
				<port id="0" precision="I64">
					<dim>1</dim>
				</port>
			</output>
		</layer>
		<layer id="113" name="272" type="Unsqueeze" version="opset1">
			<rt_info>
				<attribute name="fused_names" value="272" version="0"/>
			</rt_info>
			<input>
				<port id="0" precision="FP32">
					<dim>16</dim>
					<dim>1</dim>
				</port>
				<port id="1" precision="I64">
					<dim>1</dim>
				</port>
			</input>
			<output>
				<port id="2" names="272" precision="FP32">
					<dim>16</dim>
					<dim>1</dim>
					<dim>1</dim>
				</port>
			</output>
		</layer>
		<layer id="114" name="Constant_6280" type="Const" version="opset1">
			<data element_type="f32" offset="16488" shape="1, 1, 1" size="4"/>
			<output>
				<port id="0" precision="FP32">
					<dim>1</dim>
					<dim>1</dim>
					<dim>1</dim>
				</port>
			</output>
		</layer>
		<layer id="115" name="274" type="Add" version="opset1">
			<data auto_broadcast="numpy"/>
			<rt_info>
				<attribute name="fused_names" value="274" version="0"/>
			</rt_info>
			<input>
				<port id="0" precision="FP32">
					<dim>16</dim>
					<dim>1</dim>
					<dim>1</dim>
				</port>
				<port id="1" precision="FP32">
					<dim>1</dim>
					<dim>1</dim>
					<dim>1</dim>
				</port>
			</input>
			<output>
				<port id="2" names="274" precision="FP32">
					<dim>16</dim>
					<dim>1</dim>
					<dim>1</dim>
				</port>
			</output>
		</layer>
		<layer id="116" name="275" type="Sqrt" version="opset1">
			<rt_info>
				<attribute name="fused_names" value="275" version="0"/>
			</rt_info>
			<input>
				<port id="0" precision="FP32">
					<dim>16</dim>
					<dim>1</dim>
					<dim>1</dim>
				</port>
			</input>
			<output>
				<port id="1" names="275" precision="FP32">
					<dim>16</dim>
					<dim>1</dim>
					<dim>1</dim>
				</port>
			</output>
		</layer>
		<layer id="117" name="277" type="Divide" version="opset1">
			<data auto_broadcast="numpy" m_pythondiv="true"/>
			<rt_info>
				<attribute name="fused_names" value="277, 279" version="0"/>
			</rt_info>
			<input>
				<port id="0" precision="FP32">
					<dim>1</dim>
					<dim>1</dim>
					<dim>1</dim>
				</port>
				<port id="1" precision="FP32">
					<dim>16</dim>
					<dim>1</dim>
					<dim>1</dim>
				</port>
			</input>
			<output>
				<port id="2" names="277,279" precision="FP32">
					<dim>16</dim>
					<dim>1</dim>
					<dim>1</dim>
				</port>
			</output>
		</layer>
		<layer id="118" name="286" type="Multiply" version="opset1">
			<data auto_broadcast="numpy"/>
			<rt_info>
				<attribute name="fused_names" value="286" version="0"/>
			</rt_info>
			<input>
				<port id="0" precision="FP32">
					<dim>1</dim>
					<dim>16</dim>
					<dim>368</dim>
					<dim>656</dim>
				</port>
				<port id="1" precision="FP32">
					<dim>16</dim>
					<dim>1</dim>
					<dim>1</dim>
				</port>
			</input>
			<output>
				<port id="2" names="286" precision="FP32">
					<dim>1</dim>
					<dim>16</dim>
					<dim>368</dim>
					<dim>656</dim>
				</port>
			</output>
		</layer>
		<layer id="119" name="Constant_6282" type="Const" version="opset1">
			<data element_type="f32" offset="19948" shape="1, 16, 1, 1" size="64"/>
			<output>
				<port id="0" precision="FP32">
					<dim>1</dim>
					<dim>16</dim>
					<dim>1</dim>
					<dim>1</dim>
				</port>
			</output>
		</layer>
		<layer id="120" name="289" type="Add" version="opset1">
			<data auto_broadcast="numpy"/>
			<rt_info>
				<attribute name="fused_names" value="289" version="0"/>
			</rt_info>
			<input>
				<port id="0" precision="FP32">
					<dim>1</dim>
					<dim>16</dim>
					<dim>368</dim>
					<dim>656</dim>
				</port>
				<port id="1" precision="FP32">
					<dim>1</dim>
					<dim>16</dim>
					<dim>1</dim>
					<dim>1</dim>
				</port>
			</input>
			<output>
				<port id="2" names="289" precision="FP32">
					<dim>1</dim>
					<dim>16</dim>
					<dim>368</dim>
					<dim>656</dim>
				</port>
			</output>
		</layer>
		<layer id="121" name="impl.module.fpn.features.2.conv.0.weight" type="Const" version="opset1">
			<data element_type="f32" offset="20012" shape="96, 16, 1, 1" size="6144"/>
			<rt_info>
				<attribute name="fused_names" value="impl.module.fpn.features.2.conv.0.weight" version="0"/>
			</rt_info>
			<output>
				<port id="0" names="impl.module.fpn.features.2.conv.0.weight" precision="FP32">
					<dim>96</dim>
					<dim>16</dim>
					<dim>1</dim>
					<dim>1</dim>
				</port>
			</output>
		</layer>
		<layer id="122" name="290" type="Convolution" version="opset1">
			<data auto_pad="explicit" dilations="1, 1" pads_begin="0, 0" pads_end="0, 0" strides="1, 1"/>
			<rt_info>
				<attribute name="fused_names" value="290" version="0"/>
			</rt_info>
			<input>
				<port id="0" precision="FP32">
					<dim>1</dim>
					<dim>16</dim>
					<dim>368</dim>
					<dim>656</dim>
				</port>
				<port id="1" precision="FP32">
					<dim>96</dim>
					<dim>16</dim>
					<dim>1</dim>
					<dim>1</dim>
				</port>
			</input>
			<output>
				<port id="2" names="290" precision="FP32">
					<dim>1</dim>
					<dim>96</dim>
					<dim>368</dim>
					<dim>656</dim>
				</port>
			</output>
		</layer>
		<layer id="123" name="Constant_395" type="Const" version="opset1">
			<data element_type="i64" offset="16440" shape="3" size="24"/>
			<rt_info>
				<attribute name="fused_names" value="Constant_395" version="0"/>
			</rt_info>
			<output>
				<port id="0" precision="I64">
					<dim>3</dim>
				</port>
			</output>
		</layer>
		<layer id="124" name="291" type="ReduceMean" version="opset1">
			<data keep_dims="false"/>
			<rt_info>
				<attribute name="fused_names" value="291" version="0"/>
			</rt_info>
			<input>
				<port id="0" precision="FP32">
					<dim>1</dim>
					<dim>96</dim>
					<dim>368</dim>
					<dim>656</dim>
				</port>
				<port id="1" precision="I64">
					<dim>3</dim>
				</port>
			</input>
			<output>
				<port id="2" names="291" precision="FP32">
					<dim>96</dim>
				</port>
			</output>
		</layer>
		<layer id="125" name="Constant_416" type="Const" version="opset1">
			<data element_type="i64" offset="16464" shape="1" size="8"/>
			<rt_info>
				<attribute name="fused_names" value="Constant_416" version="0"/>
			</rt_info>
			<output>
				<port id="0" precision="I64">
					<dim>1</dim>
				</port>
			</output>
		</layer>
		<layer id="126" name="311" type="Unsqueeze" version="opset1">
			<rt_info>
				<attribute name="fused_names" value="311" version="0"/>
			</rt_info>
			<input>
				<port id="0" precision="FP32">
					<dim>96</dim>
				</port>
				<port id="1" precision="I64">
					<dim>1</dim>
				</port>
			</input>
			<output>
				<port id="2" names="311" precision="FP32">
					<dim>96</dim>
					<dim>1</dim>
				</port>
			</output>
		</layer>
		<layer id="127" name="Constant_418" type="Const" version="opset1">
			<data element_type="i64" offset="16472" shape="1" size="8"/>
			<rt_info>
				<attribute name="fused_names" value="Constant_418" version="0"/>
			</rt_info>
			<output>
				<port id="0" precision="I64">
					<dim>1</dim>
				</port>
			</output>
		</layer>
		<layer id="128" name="312" type="Unsqueeze" version="opset1">
			<rt_info>
				<attribute name="fused_names" value="312" version="0"/>
			</rt_info>
			<input>
				<port id="0" precision="FP32">
					<dim>96</dim>
					<dim>1</dim>
				</port>
				<port id="1" precision="I64">
					<dim>1</dim>
				</port>
			</input>
			<output>
				<port id="2" names="312" precision="FP32">
					<dim>96</dim>
					<dim>1</dim>
					<dim>1</dim>
				</port>
			</output>
		</layer>
		<layer id="129" name="313" type="Subtract" version="opset1">
			<data auto_broadcast="numpy"/>
			<rt_info>
				<attribute name="fused_names" value="313" version="0"/>
			</rt_info>
			<input>
				<port id="0" precision="FP32">
					<dim>1</dim>
					<dim>96</dim>
					<dim>368</dim>
					<dim>656</dim>
				</port>
				<port id="1" precision="FP32">
					<dim>96</dim>
					<dim>1</dim>
					<dim>1</dim>
				</port>
			</input>
			<output>
				<port id="2" names="313" precision="FP32">
					<dim>1</dim>
					<dim>96</dim>
					<dim>368</dim>
					<dim>656</dim>
				</port>
			</output>
		</layer>
		<layer id="130" name="314" type="Multiply" version="opset1">
			<data auto_broadcast="numpy"/>
			<rt_info>
				<attribute name="fused_names" value="314" version="0"/>
			</rt_info>
			<input>
				<port id="0" precision="FP32">
					<dim>1</dim>
					<dim>96</dim>
					<dim>1</dim>
					<dim>1</dim>
				</port>
				<port id="1" precision="FP32">
					<dim>1</dim>
					<dim>96</dim>
					<dim>368</dim>
					<dim>656</dim>
				</port>
			</input>
			<output>
				<port id="2" names="314" precision="FP32">
					<dim>1</dim>
					<dim>96</dim>
					<dim>368</dim>
					<dim>656</dim>
				</port>
			</output>
		</layer>
		<layer id="131" name="Constant_6286" type="Const" version="opset1">
			<data element_type="f32" offset="16480" shape="1, 1, 1" size="4"/>
			<output>
				<port id="0" precision="FP32">
					<dim>1</dim>
					<dim>1</dim>
					<dim>1</dim>
				</port>
			</output>
		</layer>
		<layer id="132" name="Constant_397" type="Const" version="opset1">
			<data element_type="i64" offset="16440" shape="3" size="24"/>
			<rt_info>
				<attribute name="fused_names" value="Constant_397" version="0"/>
			</rt_info>
			<output>
				<port id="0" precision="I64">
					<dim>3</dim>
				</port>
			</output>
		</layer>
		<layer id="133" name="292" type="ReduceMean" version="opset1">
			<data keep_dims="true"/>
			<rt_info>
				<attribute name="fused_names" value="292" version="0"/>
			</rt_info>
			<input>
				<port id="0" precision="FP32">
					<dim>1</dim>
					<dim>96</dim>
					<dim>368</dim>
					<dim>656</dim>
				</port>
				<port id="1" precision="I64">
					<dim>3</dim>
				</port>
			</input>
			<output>
				<port id="2" names="292" precision="FP32">
					<dim>1</dim>
					<dim>96</dim>
					<dim>1</dim>
					<dim>1</dim>
				</port>
			</output>
		</layer>
		<layer id="134" name="293" type="Subtract" version="opset1">
			<data auto_broadcast="numpy"/>
			<rt_info>
				<attribute name="fused_names" value="293" version="0"/>
			</rt_info>
			<input>
				<port id="0" precision="FP32">
					<dim>1</dim>
					<dim>96</dim>
					<dim>368</dim>
					<dim>656</dim>
				</port>
				<port id="1" precision="FP32">
					<dim>1</dim>
					<dim>96</dim>
					<dim>1</dim>
					<dim>1</dim>
				</port>
			</input>
			<output>
				<port id="2" names="293" precision="FP32">
					<dim>1</dim>
					<dim>96</dim>
					<dim>368</dim>
					<dim>656</dim>
				</port>
			</output>
		</layer>
		<layer id="135" name="294" type="Multiply" version="opset1">
			<data auto_broadcast="numpy"/>
			<rt_info>
				<attribute name="fused_names" value="294" version="0"/>
			</rt_info>
			<input>
				<port id="0" precision="FP32">
					<dim>1</dim>
					<dim>96</dim>
					<dim>368</dim>
					<dim>656</dim>
				</port>
				<port id="1" precision="FP32">
					<dim>1</dim>
					<dim>96</dim>
					<dim>368</dim>
					<dim>656</dim>
				</port>
			</input>
			<output>
				<port id="2" names="294" precision="FP32">
					<dim>1</dim>
					<dim>96</dim>
					<dim>368</dim>
					<dim>656</dim>
				</port>
			</output>
		</layer>
		<layer id="136" name="Constant_401" type="Const" version="opset1">
			<data element_type="i64" offset="16440" shape="3" size="24"/>
			<rt_info>
				<attribute name="fused_names" value="Constant_401" version="0"/>
			</rt_info>
			<output>
				<port id="0" precision="I64">
					<dim>3</dim>
				</port>
			</output>
		</layer>
		<layer id="137" name="295" type="ReduceMean" version="opset1">
			<data keep_dims="false"/>
			<rt_info>
				<attribute name="fused_names" value="295" version="0"/>
			</rt_info>
			<input>
				<port id="0" precision="FP32">
					<dim>1</dim>
					<dim>96</dim>
					<dim>368</dim>
					<dim>656</dim>
				</port>
				<port id="1" precision="I64">
					<dim>3</dim>
				</port>
			</input>
			<output>
				<port id="2" names="295" precision="FP32">
					<dim>96</dim>
				</port>
			</output>
		</layer>
		<layer id="138" name="296" type="Sqrt" version="opset1">
			<rt_info>
				<attribute name="fused_names" value="296" version="0"/>
			</rt_info>
			<input>
				<port id="0" precision="FP32">
					<dim>96</dim>
				</port>
			</input>
			<output>
				<port id="1" names="296" precision="FP32">
					<dim>96</dim>
				</port>
			</output>
		</layer>
		<layer id="139" name="Constant_6284" type="Const" version="opset1">
			<data element_type="f32" offset="16484" shape="1" size="4"/>
			<output>
				<port id="0" precision="FP32">
					<dim>1</dim>
				</port>
			</output>
		</layer>
		<layer id="140" name="299" type="Power" version="opset1">
			<data auto_broadcast="numpy"/>
			<rt_info>
				<attribute name="fused_names" value="299" version="0"/>
			</rt_info>
			<input>
				<port id="0" precision="FP32">
					<dim>96</dim>
				</port>
				<port id="1" precision="FP32">
					<dim>1</dim>
				</port>
			</input>
			<output>
				<port id="2" names="299" precision="FP32">
					<dim>96</dim>
				</port>
			</output>
		</layer>
		<layer id="141" name="Constant_405" type="Const" version="opset1">
			<data element_type="i64" offset="16464" shape="1" size="8"/>
			<rt_info>
				<attribute name="fused_names" value="Constant_405" version="0"/>
			</rt_info>
			<output>
				<port id="0" precision="I64">
					<dim>1</dim>
				</port>
			</output>
		</layer>
		<layer id="142" name="300" type="Unsqueeze" version="opset1">
			<rt_info>
				<attribute name="fused_names" value="300" version="0"/>
			</rt_info>
			<input>
				<port id="0" precision="FP32">
					<dim>96</dim>
				</port>
				<port id="1" precision="I64">
					<dim>1</dim>
				</port>
			</input>
			<output>
				<port id="2" names="300" precision="FP32">
					<dim>96</dim>
					<dim>1</dim>
				</port>
			</output>
		</layer>
		<layer id="143" name="Constant_407" type="Const" version="opset1">
			<data element_type="i64" offset="16472" shape="1" size="8"/>
			<rt_info>
				<attribute name="fused_names" value="Constant_407" version="0"/>
			</rt_info>
			<output>
				<port id="0" precision="I64">
					<dim>1</dim>
				</port>
			</output>
		</layer>
		<layer id="144" name="301" type="Unsqueeze" version="opset1">
			<rt_info>
				<attribute name="fused_names" value="301" version="0"/>
			</rt_info>
			<input>
				<port id="0" precision="FP32">
					<dim>96</dim>
					<dim>1</dim>
				</port>
				<port id="1" precision="I64">
					<dim>1</dim>
				</port>
			</input>
			<output>
				<port id="2" names="301" precision="FP32">
					<dim>96</dim>
					<dim>1</dim>
					<dim>1</dim>
				</port>
			</output>
		</layer>
		<layer id="145" name="Constant_6285" type="Const" version="opset1">
			<data element_type="f32" offset="16488" shape="1, 1, 1" size="4"/>
			<output>
				<port id="0" precision="FP32">
					<dim>1</dim>
					<dim>1</dim>
					<dim>1</dim>
				</port>
			</output>
		</layer>
		<layer id="146" name="303" type="Add" version="opset1">
			<data auto_broadcast="numpy"/>
			<rt_info>
				<attribute name="fused_names" value="303" version="0"/>
			</rt_info>
			<input>
				<port id="0" precision="FP32">
					<dim>96</dim>
					<dim>1</dim>
					<dim>1</dim>
				</port>
				<port id="1" precision="FP32">
					<dim>1</dim>
					<dim>1</dim>
					<dim>1</dim>
				</port>
			</input>
			<output>
				<port id="2" names="303" precision="FP32">
					<dim>96</dim>
					<dim>1</dim>
					<dim>1</dim>
				</port>
			</output>
		</layer>
		<layer id="147" name="304" type="Sqrt" version="opset1">
			<rt_info>
				<attribute name="fused_names" value="304" version="0"/>
			</rt_info>
			<input>
				<port id="0" precision="FP32">
					<dim>96</dim>
					<dim>1</dim>
					<dim>1</dim>
				</port>
			</input>
			<output>
				<port id="1" names="304" precision="FP32">
					<dim>96</dim>
					<dim>1</dim>
					<dim>1</dim>
				</port>
			</output>
		</layer>
		<layer id="148" name="306" type="Divide" version="opset1">
			<data auto_broadcast="numpy" m_pythondiv="true"/>
			<rt_info>
				<attribute name="fused_names" value="306, 308" version="0"/>
			</rt_info>
			<input>
				<port id="0" precision="FP32">
					<dim>1</dim>
					<dim>1</dim>
					<dim>1</dim>
				</port>
				<port id="1" precision="FP32">
					<dim>96</dim>
					<dim>1</dim>
					<dim>1</dim>
				</port>
			</input>
			<output>
				<port id="2" names="306,308" precision="FP32">
					<dim>96</dim>
					<dim>1</dim>
					<dim>1</dim>
				</port>
			</output>
		</layer>
		<layer id="149" name="315" type="Multiply" version="opset1">
			<data auto_broadcast="numpy"/>
			<rt_info>
				<attribute name="fused_names" value="315" version="0"/>
			</rt_info>
			<input>
				<port id="0" precision="FP32">
					<dim>1</dim>
					<dim>96</dim>
					<dim>368</dim>
					<dim>656</dim>
				</port>
				<port id="1" precision="FP32">
					<dim>96</dim>
					<dim>1</dim>
					<dim>1</dim>
				</port>
			</input>
			<output>
				<port id="2" names="315" precision="FP32">
					<dim>1</dim>
					<dim>96</dim>
					<dim>368</dim>
					<dim>656</dim>
				</port>
			</output>
		</layer>
		<layer id="150" name="Constant_6287" type="Const" version="opset1">
			<data element_type="f32" offset="26156" shape="1, 96, 1, 1" size="384"/>
			<output>
				<port id="0" precision="FP32">
					<dim>1</dim>
					<dim>96</dim>
					<dim>1</dim>
					<dim>1</dim>
				</port>
			</output>
		</layer>
		<layer id="151" name="318" type="Add" version="opset1">
			<data auto_broadcast="numpy"/>
			<rt_info>
				<attribute name="fused_names" value="318" version="0"/>
			</rt_info>
			<input>
				<port id="0" precision="FP32">
					<dim>1</dim>
					<dim>96</dim>
					<dim>368</dim>
					<dim>656</dim>
				</port>
				<port id="1" precision="FP32">
					<dim>1</dim>
					<dim>96</dim>
					<dim>1</dim>
					<dim>1</dim>
				</port>
			</input>
			<output>
				<port id="2" names="318" precision="FP32">
					<dim>1</dim>
					<dim>96</dim>
					<dim>368</dim>
					<dim>656</dim>
				</port>
			</output>
		</layer>
		<layer id="152" name="321" type="Clamp" version="opset1">
			<data max="6" min="0"/>
			<rt_info>
				<attribute name="fused_names" value="321, Maximum_426" version="0"/>
			</rt_info>
			<input>
				<port id="0" precision="FP32">
					<dim>1</dim>
					<dim>96</dim>
					<dim>368</dim>
					<dim>656</dim>
				</port>
			</input>
			<output>
				<port id="1" names="321" precision="FP32">
					<dim>1</dim>
					<dim>96</dim>
					<dim>368</dim>
					<dim>656</dim>
				</port>
			</output>
		</layer>
		<layer id="153" name="Reshape_436" type="Const" version="opset1">
			<data element_type="f32" offset="26540" shape="96, 1, 1, 3, 3" size="3456"/>
			<output>
				<port id="0" precision="FP32">
					<dim>96</dim>
					<dim>1</dim>
					<dim>1</dim>
					<dim>3</dim>
					<dim>3</dim>
				</port>
			</output>
		</layer>
		<layer id="154" name="322" type="GroupConvolution" version="opset1">
			<data auto_pad="explicit" dilations="1, 1" pads_begin="1, 1" pads_end="1, 1" strides="2, 2"/>
			<rt_info>
				<attribute name="fused_names" value="322, Reshape_436" version="0"/>
			</rt_info>
			<input>
				<port id="0" precision="FP32">
					<dim>1</dim>
					<dim>96</dim>
					<dim>368</dim>
					<dim>656</dim>
				</port>
				<port id="1" precision="FP32">
					<dim>96</dim>
					<dim>1</dim>
					<dim>1</dim>
					<dim>3</dim>
					<dim>3</dim>
				</port>
			</input>
			<output>
				<port id="2" names="322" precision="FP32">
					<dim>1</dim>
					<dim>96</dim>
					<dim>184</dim>
					<dim>328</dim>
				</port>
			</output>
		</layer>
		<layer id="155" name="Constant_503" type="Const" version="opset1">
			<data element_type="i64" offset="16440" shape="3" size="24"/>
			<rt_info>
				<attribute name="fused_names" value="Constant_503" version="0"/>
			</rt_info>
			<output>
				<port id="0" precision="I64">
					<dim>3</dim>
				</port>
			</output>
		</layer>
		<layer id="156" name="323" type="ReduceMean" version="opset1">
			<data keep_dims="false"/>
			<rt_info>
				<attribute name="fused_names" value="323" version="0"/>
			</rt_info>
			<input>
				<port id="0" precision="FP32">
					<dim>1</dim>
					<dim>96</dim>
					<dim>184</dim>
					<dim>328</dim>
				</port>
				<port id="1" precision="I64">
					<dim>3</dim>
				</port>
			</input>
			<output>
				<port id="2" names="323" precision="FP32">
					<dim>96</dim>
				</port>
			</output>
		</layer>
		<layer id="157" name="Constant_524" type="Const" version="opset1">
			<data element_type="i64" offset="16464" shape="1" size="8"/>
			<rt_info>
				<attribute name="fused_names" value="Constant_524" version="0"/>
			</rt_info>
			<output>
				<port id="0" precision="I64">
					<dim>1</dim>
				</port>
			</output>
		</layer>
		<layer id="158" name="343" type="Unsqueeze" version="opset1">
			<rt_info>
				<attribute name="fused_names" value="343" version="0"/>
			</rt_info>
			<input>
				<port id="0" precision="FP32">
					<dim>96</dim>
				</port>
				<port id="1" precision="I64">
					<dim>1</dim>
				</port>
			</input>
			<output>
				<port id="2" names="343" precision="FP32">
					<dim>96</dim>
					<dim>1</dim>
				</port>
			</output>
		</layer>
		<layer id="159" name="Constant_526" type="Const" version="opset1">
			<data element_type="i64" offset="16472" shape="1" size="8"/>
			<rt_info>
				<attribute name="fused_names" value="Constant_526" version="0"/>
			</rt_info>
			<output>
				<port id="0" precision="I64">
					<dim>1</dim>
				</port>
			</output>
		</layer>
		<layer id="160" name="344" type="Unsqueeze" version="opset1">
			<rt_info>
				<attribute name="fused_names" value="344" version="0"/>
			</rt_info>
			<input>
				<port id="0" precision="FP32">
					<dim>96</dim>
					<dim>1</dim>
				</port>
				<port id="1" precision="I64">
					<dim>1</dim>
				</port>
			</input>
			<output>
				<port id="2" names="344" precision="FP32">
					<dim>96</dim>
					<dim>1</dim>
					<dim>1</dim>
				</port>
			</output>
		</layer>
		<layer id="161" name="345" type="Subtract" version="opset1">
			<data auto_broadcast="numpy"/>
			<rt_info>
				<attribute name="fused_names" value="345" version="0"/>
			</rt_info>
			<input>
				<port id="0" precision="FP32">
					<dim>1</dim>
					<dim>96</dim>
					<dim>184</dim>
					<dim>328</dim>
				</port>
				<port id="1" precision="FP32">
					<dim>96</dim>
					<dim>1</dim>
					<dim>1</dim>
				</port>
			</input>
			<output>
				<port id="2" names="345" precision="FP32">
					<dim>1</dim>
					<dim>96</dim>
					<dim>184</dim>
					<dim>328</dim>
				</port>
			</output>
		</layer>
		<layer id="162" name="346" type="Multiply" version="opset1">
			<data auto_broadcast="numpy"/>
			<rt_info>
				<attribute name="fused_names" value="346" version="0"/>
			</rt_info>
			<input>
				<port id="0" precision="FP32">
					<dim>1</dim>
					<dim>96</dim>
					<dim>1</dim>
					<dim>1</dim>
				</port>
				<port id="1" precision="FP32">
					<dim>1</dim>
					<dim>96</dim>
					<dim>184</dim>
					<dim>328</dim>
				</port>
			</input>
			<output>
				<port id="2" names="346" precision="FP32">
					<dim>1</dim>
					<dim>96</dim>
					<dim>184</dim>
					<dim>328</dim>
				</port>
			</output>
		</layer>
		<layer id="163" name="Constant_6291" type="Const" version="opset1">
			<data element_type="f32" offset="16480" shape="1, 1, 1" size="4"/>
			<output>
				<port id="0" precision="FP32">
					<dim>1</dim>
					<dim>1</dim>
					<dim>1</dim>
				</port>
			</output>
		</layer>
		<layer id="164" name="Constant_505" type="Const" version="opset1">
			<data element_type="i64" offset="16440" shape="3" size="24"/>
			<rt_info>
				<attribute name="fused_names" value="Constant_505" version="0"/>
			</rt_info>
			<output>
				<port id="0" precision="I64">
					<dim>3</dim>
				</port>
			</output>
		</layer>
		<layer id="165" name="324" type="ReduceMean" version="opset1">
			<data keep_dims="true"/>
			<rt_info>
				<attribute name="fused_names" value="324" version="0"/>
			</rt_info>
			<input>
				<port id="0" precision="FP32">
					<dim>1</dim>
					<dim>96</dim>
					<dim>184</dim>
					<dim>328</dim>
				</port>
				<port id="1" precision="I64">
					<dim>3</dim>
				</port>
			</input>
			<output>
				<port id="2" names="324" precision="FP32">
					<dim>1</dim>
					<dim>96</dim>
					<dim>1</dim>
					<dim>1</dim>
				</port>
			</output>
		</layer>
		<layer id="166" name="325" type="Subtract" version="opset1">
			<data auto_broadcast="numpy"/>
			<rt_info>
				<attribute name="fused_names" value="325" version="0"/>
			</rt_info>
			<input>
				<port id="0" precision="FP32">
					<dim>1</dim>
					<dim>96</dim>
					<dim>184</dim>
					<dim>328</dim>
				</port>
				<port id="1" precision="FP32">
					<dim>1</dim>
					<dim>96</dim>
					<dim>1</dim>
					<dim>1</dim>
				</port>
			</input>
			<output>
				<port id="2" names="325" precision="FP32">
					<dim>1</dim>
					<dim>96</dim>
					<dim>184</dim>
					<dim>328</dim>
				</port>
			</output>
		</layer>
		<layer id="167" name="326" type="Multiply" version="opset1">
			<data auto_broadcast="numpy"/>
			<rt_info>
				<attribute name="fused_names" value="326" version="0"/>
			</rt_info>
			<input>
				<port id="0" precision="FP32">
					<dim>1</dim>
					<dim>96</dim>
					<dim>184</dim>
					<dim>328</dim>
				</port>
				<port id="1" precision="FP32">
					<dim>1</dim>
					<dim>96</dim>
					<dim>184</dim>
					<dim>328</dim>
				</port>
			</input>
			<output>
				<port id="2" names="326" precision="FP32">
					<dim>1</dim>
					<dim>96</dim>
					<dim>184</dim>
					<dim>328</dim>
				</port>
			</output>
		</layer>
		<layer id="168" name="Constant_509" type="Const" version="opset1">
			<data element_type="i64" offset="16440" shape="3" size="24"/>
			<rt_info>
				<attribute name="fused_names" value="Constant_509" version="0"/>
			</rt_info>
			<output>
				<port id="0" precision="I64">
					<dim>3</dim>
				</port>
			</output>
		</layer>
		<layer id="169" name="327" type="ReduceMean" version="opset1">
			<data keep_dims="false"/>
			<rt_info>
				<attribute name="fused_names" value="327" version="0"/>
			</rt_info>
			<input>
				<port id="0" precision="FP32">
					<dim>1</dim>
					<dim>96</dim>
					<dim>184</dim>
					<dim>328</dim>
				</port>
				<port id="1" precision="I64">
					<dim>3</dim>
				</port>
			</input>
			<output>
				<port id="2" names="327" precision="FP32">
					<dim>96</dim>
				</port>
			</output>
		</layer>
		<layer id="170" name="328" type="Sqrt" version="opset1">
			<rt_info>
				<attribute name="fused_names" value="328" version="0"/>
			</rt_info>
			<input>
				<port id="0" precision="FP32">
					<dim>96</dim>
				</port>
			</input>
			<output>
				<port id="1" names="328" precision="FP32">
					<dim>96</dim>
				</port>
			</output>
		</layer>
		<layer id="171" name="Constant_6289" type="Const" version="opset1">
			<data element_type="f32" offset="16484" shape="1" size="4"/>
			<output>
				<port id="0" precision="FP32">
					<dim>1</dim>
				</port>
			</output>
		</layer>
		<layer id="172" name="331" type="Power" version="opset1">
			<data auto_broadcast="numpy"/>
			<rt_info>
				<attribute name="fused_names" value="331" version="0"/>
			</rt_info>
			<input>
				<port id="0" precision="FP32">
					<dim>96</dim>
				</port>
				<port id="1" precision="FP32">
					<dim>1</dim>
				</port>
			</input>
			<output>
				<port id="2" names="331" precision="FP32">
					<dim>96</dim>
				</port>
			</output>
		</layer>
		<layer id="173" name="Constant_513" type="Const" version="opset1">
			<data element_type="i64" offset="16464" shape="1" size="8"/>
			<rt_info>
				<attribute name="fused_names" value="Constant_513" version="0"/>
			</rt_info>
			<output>
				<port id="0" precision="I64">
					<dim>1</dim>
				</port>
			</output>
		</layer>
		<layer id="174" name="332" type="Unsqueeze" version="opset1">
			<rt_info>
				<attribute name="fused_names" value="332" version="0"/>
			</rt_info>
			<input>
				<port id="0" precision="FP32">
					<dim>96</dim>
				</port>
				<port id="1" precision="I64">
					<dim>1</dim>
				</port>
			</input>
			<output>
				<port id="2" names="332" precision="FP32">
					<dim>96</dim>
					<dim>1</dim>
				</port>
			</output>
		</layer>
		<layer id="175" name="Constant_515" type="Const" version="opset1">
			<data element_type="i64" offset="16472" shape="1" size="8"/>
			<rt_info>
				<attribute name="fused_names" value="Constant_515" version="0"/>
			</rt_info>
			<output>
				<port id="0" precision="I64">
					<dim>1</dim>
				</port>
			</output>
		</layer>
		<layer id="176" name="333" type="Unsqueeze" version="opset1">
			<rt_info>
				<attribute name="fused_names" value="333" version="0"/>
			</rt_info>
			<input>
				<port id="0" precision="FP32">
					<dim>96</dim>
					<dim>1</dim>
				</port>
				<port id="1" precision="I64">
					<dim>1</dim>
				</port>
			</input>
			<output>
				<port id="2" names="333" precision="FP32">
					<dim>96</dim>
					<dim>1</dim>
					<dim>1</dim>
				</port>
			</output>
		</layer>
		<layer id="177" name="Constant_6290" type="Const" version="opset1">
			<data element_type="f32" offset="16488" shape="1, 1, 1" size="4"/>
			<output>
				<port id="0" precision="FP32">
					<dim>1</dim>
					<dim>1</dim>
					<dim>1</dim>
				</port>
			</output>
		</layer>
		<layer id="178" name="335" type="Add" version="opset1">
			<data auto_broadcast="numpy"/>
			<rt_info>
				<attribute name="fused_names" value="335" version="0"/>
			</rt_info>
			<input>
				<port id="0" precision="FP32">
					<dim>96</dim>
					<dim>1</dim>
					<dim>1</dim>
				</port>
				<port id="1" precision="FP32">
					<dim>1</dim>
					<dim>1</dim>
					<dim>1</dim>
				</port>
			</input>
			<output>
				<port id="2" names="335" precision="FP32">
					<dim>96</dim>
					<dim>1</dim>
					<dim>1</dim>
				</port>
			</output>
		</layer>
		<layer id="179" name="336" type="Sqrt" version="opset1">
			<rt_info>
				<attribute name="fused_names" value="336" version="0"/>
			</rt_info>
			<input>
				<port id="0" precision="FP32">
					<dim>96</dim>
					<dim>1</dim>
					<dim>1</dim>
				</port>
			</input>
			<output>
				<port id="1" names="336" precision="FP32">
					<dim>96</dim>
					<dim>1</dim>
					<dim>1</dim>
				</port>
			</output>
		</layer>
		<layer id="180" name="338" type="Divide" version="opset1">
			<data auto_broadcast="numpy" m_pythondiv="true"/>
			<rt_info>
				<attribute name="fused_names" value="338, 340" version="0"/>
			</rt_info>
			<input>
				<port id="0" precision="FP32">
					<dim>1</dim>
					<dim>1</dim>
					<dim>1</dim>
				</port>
				<port id="1" precision="FP32">
					<dim>96</dim>
					<dim>1</dim>
					<dim>1</dim>
				</port>
			</input>
			<output>
				<port id="2" names="338,340" precision="FP32">
					<dim>96</dim>
					<dim>1</dim>
					<dim>1</dim>
				</port>
			</output>
		</layer>
		<layer id="181" name="347" type="Multiply" version="opset1">
			<data auto_broadcast="numpy"/>
			<rt_info>
				<attribute name="fused_names" value="347" version="0"/>
			</rt_info>
			<input>
				<port id="0" precision="FP32">
					<dim>1</dim>
					<dim>96</dim>
					<dim>184</dim>
					<dim>328</dim>
				</port>
				<port id="1" precision="FP32">
					<dim>96</dim>
					<dim>1</dim>
					<dim>1</dim>
				</port>
			</input>
			<output>
				<port id="2" names="347" precision="FP32">
					<dim>1</dim>
					<dim>96</dim>
					<dim>184</dim>
					<dim>328</dim>
				</port>
			</output>
		</layer>
		<layer id="182" name="Constant_6292" type="Const" version="opset1">
			<data element_type="f32" offset="29996" shape="1, 96, 1, 1" size="384"/>
			<output>
				<port id="0" precision="FP32">
					<dim>1</dim>
					<dim>96</dim>
					<dim>1</dim>
					<dim>1</dim>
				</port>
			</output>
		</layer>
		<layer id="183" name="350" type="Add" version="opset1">
			<data auto_broadcast="numpy"/>
			<rt_info>
				<attribute name="fused_names" value="350" version="0"/>
			</rt_info>
			<input>
				<port id="0" precision="FP32">
					<dim>1</dim>
					<dim>96</dim>
					<dim>184</dim>
					<dim>328</dim>
				</port>
				<port id="1" precision="FP32">
					<dim>1</dim>
					<dim>96</dim>
					<dim>1</dim>
					<dim>1</dim>
				</port>
			</input>
			<output>
				<port id="2" names="350" precision="FP32">
					<dim>1</dim>
					<dim>96</dim>
					<dim>184</dim>
					<dim>328</dim>
				</port>
			</output>
		</layer>
		<layer id="184" name="353" type="Clamp" version="opset1">
			<data max="6" min="0"/>
			<rt_info>
				<attribute name="fused_names" value="353, Maximum_534" version="0"/>
			</rt_info>
			<input>
				<port id="0" precision="FP32">
					<dim>1</dim>
					<dim>96</dim>
					<dim>184</dim>
					<dim>328</dim>
				</port>
			</input>
			<output>
				<port id="1" names="353" precision="FP32">
					<dim>1</dim>
					<dim>96</dim>
					<dim>184</dim>
					<dim>328</dim>
				</port>
			</output>
		</layer>
		<layer id="185" name="impl.module.fpn.features.2.conv.6.weight" type="Const" version="opset1">
			<data element_type="f32" offset="30380" shape="24, 96, 1, 1" size="9216"/>
			<rt_info>
				<attribute name="fused_names" value="impl.module.fpn.features.2.conv.6.weight" version="0"/>
			</rt_info>
			<output>
				<port id="0" names="impl.module.fpn.features.2.conv.6.weight" precision="FP32">
					<dim>24</dim>
					<dim>96</dim>
					<dim>1</dim>
					<dim>1</dim>
				</port>
			</output>
		</layer>
		<layer id="186" name="354" type="Convolution" version="opset1">
			<data auto_pad="explicit" dilations="1, 1" pads_begin="0, 0" pads_end="0, 0" strides="1, 1"/>
			<rt_info>
				<attribute name="fused_names" value="354" version="0"/>
			</rt_info>
			<input>
				<port id="0" precision="FP32">
					<dim>1</dim>
					<dim>96</dim>
					<dim>184</dim>
					<dim>328</dim>
				</port>
				<port id="1" precision="FP32">
					<dim>24</dim>
					<dim>96</dim>
					<dim>1</dim>
					<dim>1</dim>
				</port>
			</input>
			<output>
				<port id="2" names="354" precision="FP32">
					<dim>1</dim>
					<dim>24</dim>
					<dim>184</dim>
					<dim>328</dim>
				</port>
			</output>
		</layer>
		<layer id="187" name="Constant_538" type="Const" version="opset1">
			<data element_type="i64" offset="16440" shape="3" size="24"/>
			<rt_info>
				<attribute name="fused_names" value="Constant_538" version="0"/>
			</rt_info>
			<output>
				<port id="0" precision="I64">
					<dim>3</dim>
				</port>
			</output>
		</layer>
		<layer id="188" name="355" type="ReduceMean" version="opset1">
			<data keep_dims="false"/>
			<rt_info>
				<attribute name="fused_names" value="355" version="0"/>
			</rt_info>
			<input>
				<port id="0" precision="FP32">
					<dim>1</dim>
					<dim>24</dim>
					<dim>184</dim>
					<dim>328</dim>
				</port>
				<port id="1" precision="I64">
					<dim>3</dim>
				</port>
			</input>
			<output>
				<port id="2" names="355" precision="FP32">
					<dim>24</dim>
				</port>
			</output>
		</layer>
		<layer id="189" name="Constant_559" type="Const" version="opset1">
			<data element_type="i64" offset="16464" shape="1" size="8"/>
			<rt_info>
				<attribute name="fused_names" value="Constant_559" version="0"/>
			</rt_info>
			<output>
				<port id="0" precision="I64">
					<dim>1</dim>
				</port>
			</output>
		</layer>
		<layer id="190" name="375" type="Unsqueeze" version="opset1">
			<rt_info>
				<attribute name="fused_names" value="375" version="0"/>
			</rt_info>
			<input>
				<port id="0" precision="FP32">
					<dim>24</dim>
				</port>
				<port id="1" precision="I64">
					<dim>1</dim>
				</port>
			</input>
			<output>
				<port id="2" names="375" precision="FP32">
					<dim>24</dim>
					<dim>1</dim>
				</port>
			</output>
		</layer>
		<layer id="191" name="Constant_561" type="Const" version="opset1">
			<data element_type="i64" offset="16472" shape="1" size="8"/>
			<rt_info>
				<attribute name="fused_names" value="Constant_561" version="0"/>
			</rt_info>
			<output>
				<port id="0" precision="I64">
					<dim>1</dim>
				</port>
			</output>
		</layer>
		<layer id="192" name="376" type="Unsqueeze" version="opset1">
			<rt_info>
				<attribute name="fused_names" value="376" version="0"/>
			</rt_info>
			<input>
				<port id="0" precision="FP32">
					<dim>24</dim>
					<dim>1</dim>
				</port>
				<port id="1" precision="I64">
					<dim>1</dim>
				</port>
			</input>
			<output>
				<port id="2" names="376" precision="FP32">
					<dim>24</dim>
					<dim>1</dim>
					<dim>1</dim>
				</port>
			</output>
		</layer>
		<layer id="193" name="377" type="Subtract" version="opset1">
			<data auto_broadcast="numpy"/>
			<rt_info>
				<attribute name="fused_names" value="377" version="0"/>
			</rt_info>
			<input>
				<port id="0" precision="FP32">
					<dim>1</dim>
					<dim>24</dim>
					<dim>184</dim>
					<dim>328</dim>
				</port>
				<port id="1" precision="FP32">
					<dim>24</dim>
					<dim>1</dim>
					<dim>1</dim>
				</port>
			</input>
			<output>
				<port id="2" names="377" precision="FP32">
					<dim>1</dim>
					<dim>24</dim>
					<dim>184</dim>
					<dim>328</dim>
				</port>
			</output>
		</layer>
		<layer id="194" name="378" type="Multiply" version="opset1">
			<data auto_broadcast="numpy"/>
			<rt_info>
				<attribute name="fused_names" value="378" version="0"/>
			</rt_info>
			<input>
				<port id="0" precision="FP32">
					<dim>1</dim>
					<dim>24</dim>
					<dim>1</dim>
					<dim>1</dim>
				</port>
				<port id="1" precision="FP32">
					<dim>1</dim>
					<dim>24</dim>
					<dim>184</dim>
					<dim>328</dim>
				</port>
			</input>
			<output>
				<port id="2" names="378" precision="FP32">
					<dim>1</dim>
					<dim>24</dim>
					<dim>184</dim>
					<dim>328</dim>
				</port>
			</output>
		</layer>
		<layer id="195" name="Constant_6296" type="Const" version="opset1">
			<data element_type="f32" offset="16480" shape="1, 1, 1" size="4"/>
			<output>
				<port id="0" precision="FP32">
					<dim>1</dim>
					<dim>1</dim>
					<dim>1</dim>
				</port>
			</output>
		</layer>
		<layer id="196" name="Constant_540" type="Const" version="opset1">
			<data element_type="i64" offset="16440" shape="3" size="24"/>
			<rt_info>
				<attribute name="fused_names" value="Constant_540" version="0"/>
			</rt_info>
			<output>
				<port id="0" precision="I64">
					<dim>3</dim>
				</port>
			</output>
		</layer>
		<layer id="197" name="356" type="ReduceMean" version="opset1">
			<data keep_dims="true"/>
			<rt_info>
				<attribute name="fused_names" value="356" version="0"/>
			</rt_info>
			<input>
				<port id="0" precision="FP32">
					<dim>1</dim>
					<dim>24</dim>
					<dim>184</dim>
					<dim>328</dim>
				</port>
				<port id="1" precision="I64">
					<dim>3</dim>
				</port>
			</input>
			<output>
				<port id="2" names="356" precision="FP32">
					<dim>1</dim>
					<dim>24</dim>
					<dim>1</dim>
					<dim>1</dim>
				</port>
			</output>
		</layer>
		<layer id="198" name="357" type="Subtract" version="opset1">
			<data auto_broadcast="numpy"/>
			<rt_info>
				<attribute name="fused_names" value="357" version="0"/>
			</rt_info>
			<input>
				<port id="0" precision="FP32">
					<dim>1</dim>
					<dim>24</dim>
					<dim>184</dim>
					<dim>328</dim>
				</port>
				<port id="1" precision="FP32">
					<dim>1</dim>
					<dim>24</dim>
					<dim>1</dim>
					<dim>1</dim>
				</port>
			</input>
			<output>
				<port id="2" names="357" precision="FP32">
					<dim>1</dim>
					<dim>24</dim>
					<dim>184</dim>
					<dim>328</dim>
				</port>
			</output>
		</layer>
		<layer id="199" name="358" type="Multiply" version="opset1">
			<data auto_broadcast="numpy"/>
			<rt_info>
				<attribute name="fused_names" value="358" version="0"/>
			</rt_info>
			<input>
				<port id="0" precision="FP32">
					<dim>1</dim>
					<dim>24</dim>
					<dim>184</dim>
					<dim>328</dim>
				</port>
				<port id="1" precision="FP32">
					<dim>1</dim>
					<dim>24</dim>
					<dim>184</dim>
					<dim>328</dim>
				</port>
			</input>
			<output>
				<port id="2" names="358" precision="FP32">
					<dim>1</dim>
					<dim>24</dim>
					<dim>184</dim>
					<dim>328</dim>
				</port>
			</output>
		</layer>
		<layer id="200" name="Constant_544" type="Const" version="opset1">
			<data element_type="i64" offset="16440" shape="3" size="24"/>
			<rt_info>
				<attribute name="fused_names" value="Constant_544" version="0"/>
			</rt_info>
			<output>
				<port id="0" precision="I64">
					<dim>3</dim>
				</port>
			</output>
		</layer>
		<layer id="201" name="359" type="ReduceMean" version="opset1">
			<data keep_dims="false"/>
			<rt_info>
				<attribute name="fused_names" value="359" version="0"/>
			</rt_info>
			<input>
				<port id="0" precision="FP32">
					<dim>1</dim>
					<dim>24</dim>
					<dim>184</dim>
					<dim>328</dim>
				</port>
				<port id="1" precision="I64">
					<dim>3</dim>
				</port>
			</input>
			<output>
				<port id="2" names="359" precision="FP32">
					<dim>24</dim>
				</port>
			</output>
		</layer>
		<layer id="202" name="360" type="Sqrt" version="opset1">
			<rt_info>
				<attribute name="fused_names" value="360" version="0"/>
			</rt_info>
			<input>
				<port id="0" precision="FP32">
					<dim>24</dim>
				</port>
			</input>
			<output>
				<port id="1" names="360" precision="FP32">
					<dim>24</dim>
				</port>
			</output>
		</layer>
		<layer id="203" name="Constant_6294" type="Const" version="opset1">
			<data element_type="f32" offset="16484" shape="1" size="4"/>
			<output>
				<port id="0" precision="FP32">
					<dim>1</dim>
				</port>
			</output>
		</layer>
		<layer id="204" name="363" type="Power" version="opset1">
			<data auto_broadcast="numpy"/>
			<rt_info>
				<attribute name="fused_names" value="363" version="0"/>
			</rt_info>
			<input>
				<port id="0" precision="FP32">
					<dim>24</dim>
				</port>
				<port id="1" precision="FP32">
					<dim>1</dim>
				</port>
			</input>
			<output>
				<port id="2" names="363" precision="FP32">
					<dim>24</dim>
				</port>
			</output>
		</layer>
		<layer id="205" name="Constant_548" type="Const" version="opset1">
			<data element_type="i64" offset="16464" shape="1" size="8"/>
			<rt_info>
				<attribute name="fused_names" value="Constant_548" version="0"/>
			</rt_info>
			<output>
				<port id="0" precision="I64">
					<dim>1</dim>
				</port>
			</output>
		</layer>
		<layer id="206" name="364" type="Unsqueeze" version="opset1">
			<rt_info>
				<attribute name="fused_names" value="364" version="0"/>
			</rt_info>
			<input>
				<port id="0" precision="FP32">
					<dim>24</dim>
				</port>
				<port id="1" precision="I64">
					<dim>1</dim>
				</port>
			</input>
			<output>
				<port id="2" names="364" precision="FP32">
					<dim>24</dim>
					<dim>1</dim>
				</port>
			</output>
		</layer>
		<layer id="207" name="Constant_550" type="Const" version="opset1">
			<data element_type="i64" offset="16472" shape="1" size="8"/>
			<rt_info>
				<attribute name="fused_names" value="Constant_550" version="0"/>
			</rt_info>
			<output>
				<port id="0" precision="I64">
					<dim>1</dim>
				</port>
			</output>
		</layer>
		<layer id="208" name="365" type="Unsqueeze" version="opset1">
			<rt_info>
				<attribute name="fused_names" value="365" version="0"/>
			</rt_info>
			<input>
				<port id="0" precision="FP32">
					<dim>24</dim>
					<dim>1</dim>
				</port>
				<port id="1" precision="I64">
					<dim>1</dim>
				</port>
			</input>
			<output>
				<port id="2" names="365" precision="FP32">
					<dim>24</dim>
					<dim>1</dim>
					<dim>1</dim>
				</port>
			</output>
		</layer>
		<layer id="209" name="Constant_6295" type="Const" version="opset1">
			<data element_type="f32" offset="16488" shape="1, 1, 1" size="4"/>
			<output>
				<port id="0" precision="FP32">
					<dim>1</dim>
					<dim>1</dim>
					<dim>1</dim>
				</port>
			</output>
		</layer>
		<layer id="210" name="367" type="Add" version="opset1">
			<data auto_broadcast="numpy"/>
			<rt_info>
				<attribute name="fused_names" value="367" version="0"/>
			</rt_info>
			<input>
				<port id="0" precision="FP32">
					<dim>24</dim>
					<dim>1</dim>
					<dim>1</dim>
				</port>
				<port id="1" precision="FP32">
					<dim>1</dim>
					<dim>1</dim>
					<dim>1</dim>
				</port>
			</input>
			<output>
				<port id="2" names="367" precision="FP32">
					<dim>24</dim>
					<dim>1</dim>
					<dim>1</dim>
				</port>
			</output>
		</layer>
		<layer id="211" name="368" type="Sqrt" version="opset1">
			<rt_info>
				<attribute name="fused_names" value="368" version="0"/>
			</rt_info>
			<input>
				<port id="0" precision="FP32">
					<dim>24</dim>
					<dim>1</dim>
					<dim>1</dim>
				</port>
			</input>
			<output>
				<port id="1" names="368" precision="FP32">
					<dim>24</dim>
					<dim>1</dim>
					<dim>1</dim>
				</port>
			</output>
		</layer>
		<layer id="212" name="370" type="Divide" version="opset1">
			<data auto_broadcast="numpy" m_pythondiv="true"/>
			<rt_info>
				<attribute name="fused_names" value="370, 372" version="0"/>
			</rt_info>
			<input>
				<port id="0" precision="FP32">
					<dim>1</dim>
					<dim>1</dim>
					<dim>1</dim>
				</port>
				<port id="1" precision="FP32">
					<dim>24</dim>
					<dim>1</dim>
					<dim>1</dim>
				</port>
			</input>
			<output>
				<port id="2" names="370,372" precision="FP32">
					<dim>24</dim>
					<dim>1</dim>
					<dim>1</dim>
				</port>
			</output>
		</layer>
		<layer id="213" name="379" type="Multiply" version="opset1">
			<data auto_broadcast="numpy"/>
			<rt_info>
				<attribute name="fused_names" value="379" version="0"/>
			</rt_info>
			<input>
				<port id="0" precision="FP32">
					<dim>1</dim>
					<dim>24</dim>
					<dim>184</dim>
					<dim>328</dim>
				</port>
				<port id="1" precision="FP32">
					<dim>24</dim>
					<dim>1</dim>
					<dim>1</dim>
				</port>
			</input>
			<output>
				<port id="2" names="379" precision="FP32">
					<dim>1</dim>
					<dim>24</dim>
					<dim>184</dim>
					<dim>328</dim>
				</port>
			</output>
		</layer>
		<layer id="214" name="Constant_6297" type="Const" version="opset1">
			<data element_type="f32" offset="39596" shape="1, 24, 1, 1" size="96"/>
			<output>
				<port id="0" precision="FP32">
					<dim>1</dim>
					<dim>24</dim>
					<dim>1</dim>
					<dim>1</dim>
				</port>
			</output>
		</layer>
		<layer id="215" name="382" type="Add" version="opset1">
			<data auto_broadcast="numpy"/>
			<rt_info>
				<attribute name="fused_names" value="382" version="0"/>
			</rt_info>
			<input>
				<port id="0" precision="FP32">
					<dim>1</dim>
					<dim>24</dim>
					<dim>184</dim>
					<dim>328</dim>
				</port>
				<port id="1" precision="FP32">
					<dim>1</dim>
					<dim>24</dim>
					<dim>1</dim>
					<dim>1</dim>
				</port>
			</input>
			<output>
				<port id="2" names="382" precision="FP32">
					<dim>1</dim>
					<dim>24</dim>
					<dim>184</dim>
					<dim>328</dim>
				</port>
			</output>
		</layer>
		<layer id="216" name="Constant_6308" type="Const" version="opset1">
			<data element_type="f32" offset="39692" shape="1, 24, 1, 1" size="96"/>
			<output>
				<port id="0" precision="FP32">
					<dim>1</dim>
					<dim>24</dim>
					<dim>1</dim>
					<dim>1</dim>
				</port>
			</output>
		</layer>
		<layer id="217" name="Constant_6303" type="Const" version="opset1">
			<data element_type="f32" offset="39788" shape="1, 144, 1, 1" size="576"/>
			<output>
				<port id="0" precision="FP32">
					<dim>1</dim>
					<dim>144</dim>
					<dim>1</dim>
					<dim>1</dim>
				</port>
			</output>
		</layer>
		<layer id="218" name="Constant_6298" type="Const" version="opset1">
			<data element_type="f32" offset="40364" shape="1, 144, 1, 1" size="576"/>
			<output>
				<port id="0" precision="FP32">
					<dim>1</dim>
					<dim>144</dim>
					<dim>1</dim>
					<dim>1</dim>
				</port>
			</output>
		</layer>
		<layer id="219" name="impl.module.fpn.features.3.conv.0.weight" type="Const" version="opset1">
			<data element_type="f32" offset="40940" shape="144, 24, 1, 1" size="13824"/>
			<rt_info>
				<attribute name="fused_names" value="impl.module.fpn.features.3.conv.0.weight" version="0"/>
			</rt_info>
			<output>
				<port id="0" names="impl.module.fpn.features.3.conv.0.weight" precision="FP32">
					<dim>144</dim>
					<dim>24</dim>
					<dim>1</dim>
					<dim>1</dim>
				</port>
			</output>
		</layer>
		<layer id="220" name="383" type="Convolution" version="opset1">
			<data auto_pad="explicit" dilations="1, 1" pads_begin="0, 0" pads_end="0, 0" strides="1, 1"/>
			<rt_info>
				<attribute name="fused_names" value="383" version="0"/>
			</rt_info>
			<input>
				<port id="0" precision="FP32">
					<dim>1</dim>
					<dim>24</dim>
					<dim>184</dim>
					<dim>328</dim>
				</port>
				<port id="1" precision="FP32">
					<dim>144</dim>
					<dim>24</dim>
					<dim>1</dim>
					<dim>1</dim>
				</port>
			</input>
			<output>
				<port id="2" names="383" precision="FP32">
					<dim>1</dim>
					<dim>144</dim>
					<dim>184</dim>
					<dim>328</dim>
				</port>
			</output>
		</layer>
		<layer id="221" name="Constant_569" type="Const" version="opset1">
			<data element_type="i64" offset="16440" shape="3" size="24"/>
			<rt_info>
				<attribute name="fused_names" value="Constant_569" version="0"/>
			</rt_info>
			<output>
				<port id="0" precision="I64">
					<dim>3</dim>
				</port>
			</output>
		</layer>
		<layer id="222" name="384" type="ReduceMean" version="opset1">
			<data keep_dims="false"/>
			<rt_info>
				<attribute name="fused_names" value="384" version="0"/>
			</rt_info>
			<input>
				<port id="0" precision="FP32">
					<dim>1</dim>
					<dim>144</dim>
					<dim>184</dim>
					<dim>328</dim>
				</port>
				<port id="1" precision="I64">
					<dim>3</dim>
				</port>
			</input>
			<output>
				<port id="2" names="384" precision="FP32">
					<dim>144</dim>
				</port>
			</output>
		</layer>
		<layer id="223" name="Constant_590" type="Const" version="opset1">
			<data element_type="i64" offset="16464" shape="1" size="8"/>
			<rt_info>
				<attribute name="fused_names" value="Constant_590" version="0"/>
			</rt_info>
			<output>
				<port id="0" precision="I64">
					<dim>1</dim>
				</port>
			</output>
		</layer>
		<layer id="224" name="404" type="Unsqueeze" version="opset1">
			<rt_info>
				<attribute name="fused_names" value="404" version="0"/>
			</rt_info>
			<input>
				<port id="0" precision="FP32">
					<dim>144</dim>
				</port>
				<port id="1" precision="I64">
					<dim>1</dim>
				</port>
			</input>
			<output>
				<port id="2" names="404" precision="FP32">
					<dim>144</dim>
					<dim>1</dim>
				</port>
			</output>
		</layer>
		<layer id="225" name="Constant_592" type="Const" version="opset1">
			<data element_type="i64" offset="16472" shape="1" size="8"/>
			<rt_info>
				<attribute name="fused_names" value="Constant_592" version="0"/>
			</rt_info>
			<output>
				<port id="0" precision="I64">
					<dim>1</dim>
				</port>
			</output>
		</layer>
		<layer id="226" name="405" type="Unsqueeze" version="opset1">
			<rt_info>
				<attribute name="fused_names" value="405" version="0"/>
			</rt_info>
			<input>
				<port id="0" precision="FP32">
					<dim>144</dim>
					<dim>1</dim>
				</port>
				<port id="1" precision="I64">
					<dim>1</dim>
				</port>
			</input>
			<output>
				<port id="2" names="405" precision="FP32">
					<dim>144</dim>
					<dim>1</dim>
					<dim>1</dim>
				</port>
			</output>
		</layer>
		<layer id="227" name="406" type="Subtract" version="opset1">
			<data auto_broadcast="numpy"/>
			<rt_info>
				<attribute name="fused_names" value="406" version="0"/>
			</rt_info>
			<input>
				<port id="0" precision="FP32">
					<dim>1</dim>
					<dim>144</dim>
					<dim>184</dim>
					<dim>328</dim>
				</port>
				<port id="1" precision="FP32">
					<dim>144</dim>
					<dim>1</dim>
					<dim>1</dim>
				</port>
			</input>
			<output>
				<port id="2" names="406" precision="FP32">
					<dim>1</dim>
					<dim>144</dim>
					<dim>184</dim>
					<dim>328</dim>
				</port>
			</output>
		</layer>
		<layer id="228" name="407" type="Multiply" version="opset1">
			<data auto_broadcast="numpy"/>
			<rt_info>
				<attribute name="fused_names" value="407" version="0"/>
			</rt_info>
			<input>
				<port id="0" precision="FP32">
					<dim>1</dim>
					<dim>144</dim>
					<dim>1</dim>
					<dim>1</dim>
				</port>
				<port id="1" precision="FP32">
					<dim>1</dim>
					<dim>144</dim>
					<dim>184</dim>
					<dim>328</dim>
				</port>
			</input>
			<output>
				<port id="2" names="407" precision="FP32">
					<dim>1</dim>
					<dim>144</dim>
					<dim>184</dim>
					<dim>328</dim>
				</port>
			</output>
		</layer>
		<layer id="229" name="Constant_6301" type="Const" version="opset1">
			<data element_type="f32" offset="16480" shape="1, 1, 1" size="4"/>
			<output>
				<port id="0" precision="FP32">
					<dim>1</dim>
					<dim>1</dim>
					<dim>1</dim>
				</port>
			</output>
		</layer>
		<layer id="230" name="Constant_571" type="Const" version="opset1">
			<data element_type="i64" offset="16440" shape="3" size="24"/>
			<rt_info>
				<attribute name="fused_names" value="Constant_571" version="0"/>
			</rt_info>
			<output>
				<port id="0" precision="I64">
					<dim>3</dim>
				</port>
			</output>
		</layer>
		<layer id="231" name="385" type="ReduceMean" version="opset1">
			<data keep_dims="true"/>
			<rt_info>
				<attribute name="fused_names" value="385" version="0"/>
			</rt_info>
			<input>
				<port id="0" precision="FP32">
					<dim>1</dim>
					<dim>144</dim>
					<dim>184</dim>
					<dim>328</dim>
				</port>
				<port id="1" precision="I64">
					<dim>3</dim>
				</port>
			</input>
			<output>
				<port id="2" names="385" precision="FP32">
					<dim>1</dim>
					<dim>144</dim>
					<dim>1</dim>
					<dim>1</dim>
				</port>
			</output>
		</layer>
		<layer id="232" name="386" type="Subtract" version="opset1">
			<data auto_broadcast="numpy"/>
			<rt_info>
				<attribute name="fused_names" value="386" version="0"/>
			</rt_info>
			<input>
				<port id="0" precision="FP32">
					<dim>1</dim>
					<dim>144</dim>
					<dim>184</dim>
					<dim>328</dim>
				</port>
				<port id="1" precision="FP32">
					<dim>1</dim>
					<dim>144</dim>
					<dim>1</dim>
					<dim>1</dim>
				</port>
			</input>
			<output>
				<port id="2" names="386" precision="FP32">
					<dim>1</dim>
					<dim>144</dim>
					<dim>184</dim>
					<dim>328</dim>
				</port>
			</output>
		</layer>
		<layer id="233" name="387" type="Multiply" version="opset1">
			<data auto_broadcast="numpy"/>
			<rt_info>
				<attribute name="fused_names" value="387" version="0"/>
			</rt_info>
			<input>
				<port id="0" precision="FP32">
					<dim>1</dim>
					<dim>144</dim>
					<dim>184</dim>
					<dim>328</dim>
				</port>
				<port id="1" precision="FP32">
					<dim>1</dim>
					<dim>144</dim>
					<dim>184</dim>
					<dim>328</dim>
				</port>
			</input>
			<output>
				<port id="2" names="387" precision="FP32">
					<dim>1</dim>
					<dim>144</dim>
					<dim>184</dim>
					<dim>328</dim>
				</port>
			</output>
		</layer>
		<layer id="234" name="Constant_575" type="Const" version="opset1">
			<data element_type="i64" offset="16440" shape="3" size="24"/>
			<rt_info>
				<attribute name="fused_names" value="Constant_575" version="0"/>
			</rt_info>
			<output>
				<port id="0" precision="I64">
					<dim>3</dim>
				</port>
			</output>
		</layer>
		<layer id="235" name="388" type="ReduceMean" version="opset1">
			<data keep_dims="false"/>
			<rt_info>
				<attribute name="fused_names" value="388" version="0"/>
			</rt_info>
			<input>
				<port id="0" precision="FP32">
					<dim>1</dim>
					<dim>144</dim>
					<dim>184</dim>
					<dim>328</dim>
				</port>
				<port id="1" precision="I64">
					<dim>3</dim>
				</port>
			</input>
			<output>
				<port id="2" names="388" precision="FP32">
					<dim>144</dim>
				</port>
			</output>
		</layer>
		<layer id="236" name="389" type="Sqrt" version="opset1">
			<rt_info>
				<attribute name="fused_names" value="389" version="0"/>
			</rt_info>
			<input>
				<port id="0" precision="FP32">
					<dim>144</dim>
				</port>
			</input>
			<output>
				<port id="1" names="389" precision="FP32">
					<dim>144</dim>
				</port>
			</output>
		</layer>
		<layer id="237" name="Constant_6299" type="Const" version="opset1">
			<data element_type="f32" offset="16484" shape="1" size="4"/>
			<output>
				<port id="0" precision="FP32">
					<dim>1</dim>
				</port>
			</output>
		</layer>
		<layer id="238" name="392" type="Power" version="opset1">
			<data auto_broadcast="numpy"/>
			<rt_info>
				<attribute name="fused_names" value="392" version="0"/>
			</rt_info>
			<input>
				<port id="0" precision="FP32">
					<dim>144</dim>
				</port>
				<port id="1" precision="FP32">
					<dim>1</dim>
				</port>
			</input>
			<output>
				<port id="2" names="392" precision="FP32">
					<dim>144</dim>
				</port>
			</output>
		</layer>
		<layer id="239" name="Constant_579" type="Const" version="opset1">
			<data element_type="i64" offset="16464" shape="1" size="8"/>
			<rt_info>
				<attribute name="fused_names" value="Constant_579" version="0"/>
			</rt_info>
			<output>
				<port id="0" precision="I64">
					<dim>1</dim>
				</port>
			</output>
		</layer>
		<layer id="240" name="393" type="Unsqueeze" version="opset1">
			<rt_info>
				<attribute name="fused_names" value="393" version="0"/>
			</rt_info>
			<input>
				<port id="0" precision="FP32">
					<dim>144</dim>
				</port>
				<port id="1" precision="I64">
					<dim>1</dim>
				</port>
			</input>
			<output>
				<port id="2" names="393" precision="FP32">
					<dim>144</dim>
					<dim>1</dim>
				</port>
			</output>
		</layer>
		<layer id="241" name="Constant_581" type="Const" version="opset1">
			<data element_type="i64" offset="16472" shape="1" size="8"/>
			<rt_info>
				<attribute name="fused_names" value="Constant_581" version="0"/>
			</rt_info>
			<output>
				<port id="0" precision="I64">
					<dim>1</dim>
				</port>
			</output>
		</layer>
		<layer id="242" name="394" type="Unsqueeze" version="opset1">
			<rt_info>
				<attribute name="fused_names" value="394" version="0"/>
			</rt_info>
			<input>
				<port id="0" precision="FP32">
					<dim>144</dim>
					<dim>1</dim>
				</port>
				<port id="1" precision="I64">
					<dim>1</dim>
				</port>
			</input>
			<output>
				<port id="2" names="394" precision="FP32">
					<dim>144</dim>
					<dim>1</dim>
					<dim>1</dim>
				</port>
			</output>
		</layer>
		<layer id="243" name="Constant_6300" type="Const" version="opset1">
			<data element_type="f32" offset="16488" shape="1, 1, 1" size="4"/>
			<output>
				<port id="0" precision="FP32">
					<dim>1</dim>
					<dim>1</dim>
					<dim>1</dim>
				</port>
			</output>
		</layer>
		<layer id="244" name="396" type="Add" version="opset1">
			<data auto_broadcast="numpy"/>
			<rt_info>
				<attribute name="fused_names" value="396" version="0"/>
			</rt_info>
			<input>
				<port id="0" precision="FP32">
					<dim>144</dim>
					<dim>1</dim>
					<dim>1</dim>
				</port>
				<port id="1" precision="FP32">
					<dim>1</dim>
					<dim>1</dim>
					<dim>1</dim>
				</port>
			</input>
			<output>
				<port id="2" names="396" precision="FP32">
					<dim>144</dim>
					<dim>1</dim>
					<dim>1</dim>
				</port>
			</output>
		</layer>
		<layer id="245" name="397" type="Sqrt" version="opset1">
			<rt_info>
				<attribute name="fused_names" value="397" version="0"/>
			</rt_info>
			<input>
				<port id="0" precision="FP32">
					<dim>144</dim>
					<dim>1</dim>
					<dim>1</dim>
				</port>
			</input>
			<output>
				<port id="1" names="397" precision="FP32">
					<dim>144</dim>
					<dim>1</dim>
					<dim>1</dim>
				</port>
			</output>
		</layer>
		<layer id="246" name="399" type="Divide" version="opset1">
			<data auto_broadcast="numpy" m_pythondiv="true"/>
			<rt_info>
				<attribute name="fused_names" value="399, 401" version="0"/>
			</rt_info>
			<input>
				<port id="0" precision="FP32">
					<dim>1</dim>
					<dim>1</dim>
					<dim>1</dim>
				</port>
				<port id="1" precision="FP32">
					<dim>144</dim>
					<dim>1</dim>
					<dim>1</dim>
				</port>
			</input>
			<output>
				<port id="2" names="399,401" precision="FP32">
					<dim>144</dim>
					<dim>1</dim>
					<dim>1</dim>
				</port>
			</output>
		</layer>
		<layer id="247" name="408" type="Multiply" version="opset1">
			<data auto_broadcast="numpy"/>
			<rt_info>
				<attribute name="fused_names" value="408" version="0"/>
			</rt_info>
			<input>
				<port id="0" precision="FP32">
					<dim>1</dim>
					<dim>144</dim>
					<dim>184</dim>
					<dim>328</dim>
				</port>
				<port id="1" precision="FP32">
					<dim>144</dim>
					<dim>1</dim>
					<dim>1</dim>
				</port>
			</input>
			<output>
				<port id="2" names="408" precision="FP32">
					<dim>1</dim>
					<dim>144</dim>
					<dim>184</dim>
					<dim>328</dim>
				</port>
			</output>
		</layer>
		<layer id="248" name="Constant_6302" type="Const" version="opset1">
			<data element_type="f32" offset="54764" shape="1, 144, 1, 1" size="576"/>
			<output>
				<port id="0" precision="FP32">
					<dim>1</dim>
					<dim>144</dim>
					<dim>1</dim>
					<dim>1</dim>
				</port>
			</output>
		</layer>
		<layer id="249" name="411" type="Add" version="opset1">
			<data auto_broadcast="numpy"/>
			<rt_info>
				<attribute name="fused_names" value="411" version="0"/>
			</rt_info>
			<input>
				<port id="0" precision="FP32">
					<dim>1</dim>
					<dim>144</dim>
					<dim>184</dim>
					<dim>328</dim>
				</port>
				<port id="1" precision="FP32">
					<dim>1</dim>
					<dim>144</dim>
					<dim>1</dim>
					<dim>1</dim>
				</port>
			</input>
			<output>
				<port id="2" names="411" precision="FP32">
					<dim>1</dim>
					<dim>144</dim>
					<dim>184</dim>
					<dim>328</dim>
				</port>
			</output>
		</layer>
		<layer id="250" name="414" type="Clamp" version="opset1">
			<data max="6" min="0"/>
			<rt_info>
				<attribute name="fused_names" value="414, Maximum_600" version="0"/>
			</rt_info>
			<input>
				<port id="0" precision="FP32">
					<dim>1</dim>
					<dim>144</dim>
					<dim>184</dim>
					<dim>328</dim>
				</port>
			</input>
			<output>
				<port id="1" names="414" precision="FP32">
					<dim>1</dim>
					<dim>144</dim>
					<dim>184</dim>
					<dim>328</dim>
				</port>
			</output>
		</layer>
		<layer id="251" name="Reshape_610" type="Const" version="opset1">
			<data element_type="f32" offset="55340" shape="144, 1, 1, 3, 3" size="5184"/>
			<output>
				<port id="0" precision="FP32">
					<dim>144</dim>
					<dim>1</dim>
					<dim>1</dim>
					<dim>3</dim>
					<dim>3</dim>
				</port>
			</output>
		</layer>
		<layer id="252" name="415" type="GroupConvolution" version="opset1">
			<data auto_pad="explicit" dilations="1, 1" pads_begin="1, 1" pads_end="1, 1" strides="1, 1"/>
			<rt_info>
				<attribute name="fused_names" value="415, Reshape_610" version="0"/>
			</rt_info>
			<input>
				<port id="0" precision="FP32">
					<dim>1</dim>
					<dim>144</dim>
					<dim>184</dim>
					<dim>328</dim>
				</port>
				<port id="1" precision="FP32">
					<dim>144</dim>
					<dim>1</dim>
					<dim>1</dim>
					<dim>3</dim>
					<dim>3</dim>
				</port>
			</input>
			<output>
				<port id="2" names="415" precision="FP32">
					<dim>1</dim>
					<dim>144</dim>
					<dim>184</dim>
					<dim>328</dim>
				</port>
			</output>
		</layer>
		<layer id="253" name="Constant_677" type="Const" version="opset1">
			<data element_type="i64" offset="16440" shape="3" size="24"/>
			<rt_info>
				<attribute name="fused_names" value="Constant_677" version="0"/>
			</rt_info>
			<output>
				<port id="0" precision="I64">
					<dim>3</dim>
				</port>
			</output>
		</layer>
		<layer id="254" name="416" type="ReduceMean" version="opset1">
			<data keep_dims="false"/>
			<rt_info>
				<attribute name="fused_names" value="416" version="0"/>
			</rt_info>
			<input>
				<port id="0" precision="FP32">
					<dim>1</dim>
					<dim>144</dim>
					<dim>184</dim>
					<dim>328</dim>
				</port>
				<port id="1" precision="I64">
					<dim>3</dim>
				</port>
			</input>
			<output>
				<port id="2" names="416" precision="FP32">
					<dim>144</dim>
				</port>
			</output>
		</layer>
		<layer id="255" name="Constant_698" type="Const" version="opset1">
			<data element_type="i64" offset="16464" shape="1" size="8"/>
			<rt_info>
				<attribute name="fused_names" value="Constant_698" version="0"/>
			</rt_info>
			<output>
				<port id="0" precision="I64">
					<dim>1</dim>
				</port>
			</output>
		</layer>
		<layer id="256" name="436" type="Unsqueeze" version="opset1">
			<rt_info>
				<attribute name="fused_names" value="436" version="0"/>
			</rt_info>
			<input>
				<port id="0" precision="FP32">
					<dim>144</dim>
				</port>
				<port id="1" precision="I64">
					<dim>1</dim>
				</port>
			</input>
			<output>
				<port id="2" names="436" precision="FP32">
					<dim>144</dim>
					<dim>1</dim>
				</port>
			</output>
		</layer>
		<layer id="257" name="Constant_700" type="Const" version="opset1">
			<data element_type="i64" offset="16472" shape="1" size="8"/>
			<rt_info>
				<attribute name="fused_names" value="Constant_700" version="0"/>
			</rt_info>
			<output>
				<port id="0" precision="I64">
					<dim>1</dim>
				</port>
			</output>
		</layer>
		<layer id="258" name="437" type="Unsqueeze" version="opset1">
			<rt_info>
				<attribute name="fused_names" value="437" version="0"/>
			</rt_info>
			<input>
				<port id="0" precision="FP32">
					<dim>144</dim>
					<dim>1</dim>
				</port>
				<port id="1" precision="I64">
					<dim>1</dim>
				</port>
			</input>
			<output>
				<port id="2" names="437" precision="FP32">
					<dim>144</dim>
					<dim>1</dim>
					<dim>1</dim>
				</port>
			</output>
		</layer>
		<layer id="259" name="438" type="Subtract" version="opset1">
			<data auto_broadcast="numpy"/>
			<rt_info>
				<attribute name="fused_names" value="438" version="0"/>
			</rt_info>
			<input>
				<port id="0" precision="FP32">
					<dim>1</dim>
					<dim>144</dim>
					<dim>184</dim>
					<dim>328</dim>
				</port>
				<port id="1" precision="FP32">
					<dim>144</dim>
					<dim>1</dim>
					<dim>1</dim>
				</port>
			</input>
			<output>
				<port id="2" names="438" precision="FP32">
					<dim>1</dim>
					<dim>144</dim>
					<dim>184</dim>
					<dim>328</dim>
				</port>
			</output>
		</layer>
		<layer id="260" name="439" type="Multiply" version="opset1">
			<data auto_broadcast="numpy"/>
			<rt_info>
				<attribute name="fused_names" value="439" version="0"/>
			</rt_info>
			<input>
				<port id="0" precision="FP32">
					<dim>1</dim>
					<dim>144</dim>
					<dim>1</dim>
					<dim>1</dim>
				</port>
				<port id="1" precision="FP32">
					<dim>1</dim>
					<dim>144</dim>
					<dim>184</dim>
					<dim>328</dim>
				</port>
			</input>
			<output>
				<port id="2" names="439" precision="FP32">
					<dim>1</dim>
					<dim>144</dim>
					<dim>184</dim>
					<dim>328</dim>
				</port>
			</output>
		</layer>
		<layer id="261" name="Constant_6306" type="Const" version="opset1">
			<data element_type="f32" offset="16480" shape="1, 1, 1" size="4"/>
			<output>
				<port id="0" precision="FP32">
					<dim>1</dim>
					<dim>1</dim>
					<dim>1</dim>
				</port>
			</output>
		</layer>
		<layer id="262" name="Constant_679" type="Const" version="opset1">
			<data element_type="i64" offset="16440" shape="3" size="24"/>
			<rt_info>
				<attribute name="fused_names" value="Constant_679" version="0"/>
			</rt_info>
			<output>
				<port id="0" precision="I64">
					<dim>3</dim>
				</port>
			</output>
		</layer>
		<layer id="263" name="417" type="ReduceMean" version="opset1">
			<data keep_dims="true"/>
			<rt_info>
				<attribute name="fused_names" value="417" version="0"/>
			</rt_info>
			<input>
				<port id="0" precision="FP32">
					<dim>1</dim>
					<dim>144</dim>
					<dim>184</dim>
					<dim>328</dim>
				</port>
				<port id="1" precision="I64">
					<dim>3</dim>
				</port>
			</input>
			<output>
				<port id="2" names="417" precision="FP32">
					<dim>1</dim>
					<dim>144</dim>
					<dim>1</dim>
					<dim>1</dim>
				</port>
			</output>
		</layer>
		<layer id="264" name="418" type="Subtract" version="opset1">
			<data auto_broadcast="numpy"/>
			<rt_info>
				<attribute name="fused_names" value="418" version="0"/>
			</rt_info>
			<input>
				<port id="0" precision="FP32">
					<dim>1</dim>
					<dim>144</dim>
					<dim>184</dim>
					<dim>328</dim>
				</port>
				<port id="1" precision="FP32">
					<dim>1</dim>
					<dim>144</dim>
					<dim>1</dim>
					<dim>1</dim>
				</port>
			</input>
			<output>
				<port id="2" names="418" precision="FP32">
					<dim>1</dim>
					<dim>144</dim>
					<dim>184</dim>
					<dim>328</dim>
				</port>
			</output>
		</layer>
		<layer id="265" name="419" type="Multiply" version="opset1">
			<data auto_broadcast="numpy"/>
			<rt_info>
				<attribute name="fused_names" value="419" version="0"/>
			</rt_info>
			<input>
				<port id="0" precision="FP32">
					<dim>1</dim>
					<dim>144</dim>
					<dim>184</dim>
					<dim>328</dim>
				</port>
				<port id="1" precision="FP32">
					<dim>1</dim>
					<dim>144</dim>
					<dim>184</dim>
					<dim>328</dim>
				</port>
			</input>
			<output>
				<port id="2" names="419" precision="FP32">
					<dim>1</dim>
					<dim>144</dim>
					<dim>184</dim>
					<dim>328</dim>
				</port>
			</output>
		</layer>
		<layer id="266" name="Constant_683" type="Const" version="opset1">
			<data element_type="i64" offset="16440" shape="3" size="24"/>
			<rt_info>
				<attribute name="fused_names" value="Constant_683" version="0"/>
			</rt_info>
			<output>
				<port id="0" precision="I64">
					<dim>3</dim>
				</port>
			</output>
		</layer>
		<layer id="267" name="420" type="ReduceMean" version="opset1">
			<data keep_dims="false"/>
			<rt_info>
				<attribute name="fused_names" value="420" version="0"/>
			</rt_info>
			<input>
				<port id="0" precision="FP32">
					<dim>1</dim>
					<dim>144</dim>
					<dim>184</dim>
					<dim>328</dim>
				</port>
				<port id="1" precision="I64">
					<dim>3</dim>
				</port>
			</input>
			<output>
				<port id="2" names="420" precision="FP32">
					<dim>144</dim>
				</port>
			</output>
		</layer>
		<layer id="268" name="421" type="Sqrt" version="opset1">
			<rt_info>
				<attribute name="fused_names" value="421" version="0"/>
			</rt_info>
			<input>
				<port id="0" precision="FP32">
					<dim>144</dim>
				</port>
			</input>
			<output>
				<port id="1" names="421" precision="FP32">
					<dim>144</dim>
				</port>
			</output>
		</layer>
		<layer id="269" name="Constant_6304" type="Const" version="opset1">
			<data element_type="f32" offset="16484" shape="1" size="4"/>
			<output>
				<port id="0" precision="FP32">
					<dim>1</dim>
				</port>
			</output>
		</layer>
		<layer id="270" name="424" type="Power" version="opset1">
			<data auto_broadcast="numpy"/>
			<rt_info>
				<attribute name="fused_names" value="424" version="0"/>
			</rt_info>
			<input>
				<port id="0" precision="FP32">
					<dim>144</dim>
				</port>
				<port id="1" precision="FP32">
					<dim>1</dim>
				</port>
			</input>
			<output>
				<port id="2" names="424" precision="FP32">
					<dim>144</dim>
				</port>
			</output>
		</layer>
		<layer id="271" name="Constant_687" type="Const" version="opset1">
			<data element_type="i64" offset="16464" shape="1" size="8"/>
			<rt_info>
				<attribute name="fused_names" value="Constant_687" version="0"/>
			</rt_info>
			<output>
				<port id="0" precision="I64">
					<dim>1</dim>
				</port>
			</output>
		</layer>
		<layer id="272" name="425" type="Unsqueeze" version="opset1">
			<rt_info>
				<attribute name="fused_names" value="425" version="0"/>
			</rt_info>
			<input>
				<port id="0" precision="FP32">
					<dim>144</dim>
				</port>
				<port id="1" precision="I64">
					<dim>1</dim>
				</port>
			</input>
			<output>
				<port id="2" names="425" precision="FP32">
					<dim>144</dim>
					<dim>1</dim>
				</port>
			</output>
		</layer>
		<layer id="273" name="Constant_689" type="Const" version="opset1">
			<data element_type="i64" offset="16472" shape="1" size="8"/>
			<rt_info>
				<attribute name="fused_names" value="Constant_689" version="0"/>
			</rt_info>
			<output>
				<port id="0" precision="I64">
					<dim>1</dim>
				</port>
			</output>
		</layer>
		<layer id="274" name="426" type="Unsqueeze" version="opset1">
			<rt_info>
				<attribute name="fused_names" value="426" version="0"/>
			</rt_info>
			<input>
				<port id="0" precision="FP32">
					<dim>144</dim>
					<dim>1</dim>
				</port>
				<port id="1" precision="I64">
					<dim>1</dim>
				</port>
			</input>
			<output>
				<port id="2" names="426" precision="FP32">
					<dim>144</dim>
					<dim>1</dim>
					<dim>1</dim>
				</port>
			</output>
		</layer>
		<layer id="275" name="Constant_6305" type="Const" version="opset1">
			<data element_type="f32" offset="16488" shape="1, 1, 1" size="4"/>
			<output>
				<port id="0" precision="FP32">
					<dim>1</dim>
					<dim>1</dim>
					<dim>1</dim>
				</port>
			</output>
		</layer>
		<layer id="276" name="428" type="Add" version="opset1">
			<data auto_broadcast="numpy"/>
			<rt_info>
				<attribute name="fused_names" value="428" version="0"/>
			</rt_info>
			<input>
				<port id="0" precision="FP32">
					<dim>144</dim>
					<dim>1</dim>
					<dim>1</dim>
				</port>
				<port id="1" precision="FP32">
					<dim>1</dim>
					<dim>1</dim>
					<dim>1</dim>
				</port>
			</input>
			<output>
				<port id="2" names="428" precision="FP32">
					<dim>144</dim>
					<dim>1</dim>
					<dim>1</dim>
				</port>
			</output>
		</layer>
		<layer id="277" name="429" type="Sqrt" version="opset1">
			<rt_info>
				<attribute name="fused_names" value="429" version="0"/>
			</rt_info>
			<input>
				<port id="0" precision="FP32">
					<dim>144</dim>
					<dim>1</dim>
					<dim>1</dim>
				</port>
			</input>
			<output>
				<port id="1" names="429" precision="FP32">
					<dim>144</dim>
					<dim>1</dim>
					<dim>1</dim>
				</port>
			</output>
		</layer>
		<layer id="278" name="431" type="Divide" version="opset1">
			<data auto_broadcast="numpy" m_pythondiv="true"/>
			<rt_info>
				<attribute name="fused_names" value="431, 433" version="0"/>
			</rt_info>
			<input>
				<port id="0" precision="FP32">
					<dim>1</dim>
					<dim>1</dim>
					<dim>1</dim>
				</port>
				<port id="1" precision="FP32">
					<dim>144</dim>
					<dim>1</dim>
					<dim>1</dim>
				</port>
			</input>
			<output>
				<port id="2" names="431,433" precision="FP32">
					<dim>144</dim>
					<dim>1</dim>
					<dim>1</dim>
				</port>
			</output>
		</layer>
		<layer id="279" name="440" type="Multiply" version="opset1">
			<data auto_broadcast="numpy"/>
			<rt_info>
				<attribute name="fused_names" value="440" version="0"/>
			</rt_info>
			<input>
				<port id="0" precision="FP32">
					<dim>1</dim>
					<dim>144</dim>
					<dim>184</dim>
					<dim>328</dim>
				</port>
				<port id="1" precision="FP32">
					<dim>144</dim>
					<dim>1</dim>
					<dim>1</dim>
				</port>
			</input>
			<output>
				<port id="2" names="440" precision="FP32">
					<dim>1</dim>
					<dim>144</dim>
					<dim>184</dim>
					<dim>328</dim>
				</port>
			</output>
		</layer>
		<layer id="280" name="Constant_6307" type="Const" version="opset1">
			<data element_type="f32" offset="60524" shape="1, 144, 1, 1" size="576"/>
			<output>
				<port id="0" precision="FP32">
					<dim>1</dim>
					<dim>144</dim>
					<dim>1</dim>
					<dim>1</dim>
				</port>
			</output>
		</layer>
		<layer id="281" name="443" type="Add" version="opset1">
			<data auto_broadcast="numpy"/>
			<rt_info>
				<attribute name="fused_names" value="443" version="0"/>
			</rt_info>
			<input>
				<port id="0" precision="FP32">
					<dim>1</dim>
					<dim>144</dim>
					<dim>184</dim>
					<dim>328</dim>
				</port>
				<port id="1" precision="FP32">
					<dim>1</dim>
					<dim>144</dim>
					<dim>1</dim>
					<dim>1</dim>
				</port>
			</input>
			<output>
				<port id="2" names="443" precision="FP32">
					<dim>1</dim>
					<dim>144</dim>
					<dim>184</dim>
					<dim>328</dim>
				</port>
			</output>
		</layer>
		<layer id="282" name="446" type="Clamp" version="opset1">
			<data max="6" min="0"/>
			<rt_info>
				<attribute name="fused_names" value="446, Maximum_708" version="0"/>
			</rt_info>
			<input>
				<port id="0" precision="FP32">
					<dim>1</dim>
					<dim>144</dim>
					<dim>184</dim>
					<dim>328</dim>
				</port>
			</input>
			<output>
				<port id="1" names="446" precision="FP32">
					<dim>1</dim>
					<dim>144</dim>
					<dim>184</dim>
					<dim>328</dim>
				</port>
			</output>
		</layer>
		<layer id="283" name="impl.module.fpn.features.3.conv.6.weight" type="Const" version="opset1">
			<data element_type="f32" offset="61100" shape="24, 144, 1, 1" size="13824"/>
			<rt_info>
				<attribute name="fused_names" value="impl.module.fpn.features.3.conv.6.weight" version="0"/>
			</rt_info>
			<output>
				<port id="0" names="impl.module.fpn.features.3.conv.6.weight" precision="FP32">
					<dim>24</dim>
					<dim>144</dim>
					<dim>1</dim>
					<dim>1</dim>
				</port>
			</output>
		</layer>
		<layer id="284" name="447" type="Convolution" version="opset1">
			<data auto_pad="explicit" dilations="1, 1" pads_begin="0, 0" pads_end="0, 0" strides="1, 1"/>
			<rt_info>
				<attribute name="fused_names" value="447" version="0"/>
			</rt_info>
			<input>
				<port id="0" precision="FP32">
					<dim>1</dim>
					<dim>144</dim>
					<dim>184</dim>
					<dim>328</dim>
				</port>
				<port id="1" precision="FP32">
					<dim>24</dim>
					<dim>144</dim>
					<dim>1</dim>
					<dim>1</dim>
				</port>
			</input>
			<output>
				<port id="2" names="447" precision="FP32">
					<dim>1</dim>
					<dim>24</dim>
					<dim>184</dim>
					<dim>328</dim>
				</port>
			</output>
		</layer>
		<layer id="285" name="Constant_712" type="Const" version="opset1">
			<data element_type="i64" offset="16440" shape="3" size="24"/>
			<rt_info>
				<attribute name="fused_names" value="Constant_712" version="0"/>
			</rt_info>
			<output>
				<port id="0" precision="I64">
					<dim>3</dim>
				</port>
			</output>
		</layer>
		<layer id="286" name="448" type="ReduceMean" version="opset1">
			<data keep_dims="false"/>
			<rt_info>
				<attribute name="fused_names" value="448" version="0"/>
			</rt_info>
			<input>
				<port id="0" precision="FP32">
					<dim>1</dim>
					<dim>24</dim>
					<dim>184</dim>
					<dim>328</dim>
				</port>
				<port id="1" precision="I64">
					<dim>3</dim>
				</port>
			</input>
			<output>
				<port id="2" names="448" precision="FP32">
					<dim>24</dim>
				</port>
			</output>
		</layer>
		<layer id="287" name="Constant_733" type="Const" version="opset1">
			<data element_type="i64" offset="16464" shape="1" size="8"/>
			<rt_info>
				<attribute name="fused_names" value="Constant_733" version="0"/>
			</rt_info>
			<output>
				<port id="0" precision="I64">
					<dim>1</dim>
				</port>
			</output>
		</layer>
		<layer id="288" name="468" type="Unsqueeze" version="opset1">
			<rt_info>
				<attribute name="fused_names" value="468" version="0"/>
			</rt_info>
			<input>
				<port id="0" precision="FP32">
					<dim>24</dim>
				</port>
				<port id="1" precision="I64">
					<dim>1</dim>
				</port>
			</input>
			<output>
				<port id="2" names="468" precision="FP32">
					<dim>24</dim>
					<dim>1</dim>
				</port>
			</output>
		</layer>
		<layer id="289" name="Constant_735" type="Const" version="opset1">
			<data element_type="i64" offset="16472" shape="1" size="8"/>
			<rt_info>
				<attribute name="fused_names" value="Constant_735" version="0"/>
			</rt_info>
			<output>
				<port id="0" precision="I64">
					<dim>1</dim>
				</port>
			</output>
		</layer>
		<layer id="290" name="469" type="Unsqueeze" version="opset1">
			<rt_info>
				<attribute name="fused_names" value="469" version="0"/>
			</rt_info>
			<input>
				<port id="0" precision="FP32">
					<dim>24</dim>
					<dim>1</dim>
				</port>
				<port id="1" precision="I64">
					<dim>1</dim>
				</port>
			</input>
			<output>
				<port id="2" names="469" precision="FP32">
					<dim>24</dim>
					<dim>1</dim>
					<dim>1</dim>
				</port>
			</output>
		</layer>
		<layer id="291" name="470" type="Subtract" version="opset1">
			<data auto_broadcast="numpy"/>
			<rt_info>
				<attribute name="fused_names" value="470" version="0"/>
			</rt_info>
			<input>
				<port id="0" precision="FP32">
					<dim>1</dim>
					<dim>24</dim>
					<dim>184</dim>
					<dim>328</dim>
				</port>
				<port id="1" precision="FP32">
					<dim>24</dim>
					<dim>1</dim>
					<dim>1</dim>
				</port>
			</input>
			<output>
				<port id="2" names="470" precision="FP32">
					<dim>1</dim>
					<dim>24</dim>
					<dim>184</dim>
					<dim>328</dim>
				</port>
			</output>
		</layer>
		<layer id="292" name="471" type="Multiply" version="opset1">
			<data auto_broadcast="numpy"/>
			<rt_info>
				<attribute name="fused_names" value="471" version="0"/>
			</rt_info>
			<input>
				<port id="0" precision="FP32">
					<dim>1</dim>
					<dim>24</dim>
					<dim>1</dim>
					<dim>1</dim>
				</port>
				<port id="1" precision="FP32">
					<dim>1</dim>
					<dim>24</dim>
					<dim>184</dim>
					<dim>328</dim>
				</port>
			</input>
			<output>
				<port id="2" names="471" precision="FP32">
					<dim>1</dim>
					<dim>24</dim>
					<dim>184</dim>
					<dim>328</dim>
				</port>
			</output>
		</layer>
		<layer id="293" name="Constant_6311" type="Const" version="opset1">
			<data element_type="f32" offset="16480" shape="1, 1, 1" size="4"/>
			<output>
				<port id="0" precision="FP32">
					<dim>1</dim>
					<dim>1</dim>
					<dim>1</dim>
				</port>
			</output>
		</layer>
		<layer id="294" name="Constant_714" type="Const" version="opset1">
			<data element_type="i64" offset="16440" shape="3" size="24"/>
			<rt_info>
				<attribute name="fused_names" value="Constant_714" version="0"/>
			</rt_info>
			<output>
				<port id="0" precision="I64">
					<dim>3</dim>
				</port>
			</output>
		</layer>
		<layer id="295" name="449" type="ReduceMean" version="opset1">
			<data keep_dims="true"/>
			<rt_info>
				<attribute name="fused_names" value="449" version="0"/>
			</rt_info>
			<input>
				<port id="0" precision="FP32">
					<dim>1</dim>
					<dim>24</dim>
					<dim>184</dim>
					<dim>328</dim>
				</port>
				<port id="1" precision="I64">
					<dim>3</dim>
				</port>
			</input>
			<output>
				<port id="2" names="449" precision="FP32">
					<dim>1</dim>
					<dim>24</dim>
					<dim>1</dim>
					<dim>1</dim>
				</port>
			</output>
		</layer>
		<layer id="296" name="450" type="Subtract" version="opset1">
			<data auto_broadcast="numpy"/>
			<rt_info>
				<attribute name="fused_names" value="450" version="0"/>
			</rt_info>
			<input>
				<port id="0" precision="FP32">
					<dim>1</dim>
					<dim>24</dim>
					<dim>184</dim>
					<dim>328</dim>
				</port>
				<port id="1" precision="FP32">
					<dim>1</dim>
					<dim>24</dim>
					<dim>1</dim>
					<dim>1</dim>
				</port>
			</input>
			<output>
				<port id="2" names="450" precision="FP32">
					<dim>1</dim>
					<dim>24</dim>
					<dim>184</dim>
					<dim>328</dim>
				</port>
			</output>
		</layer>
		<layer id="297" name="451" type="Multiply" version="opset1">
			<data auto_broadcast="numpy"/>
			<rt_info>
				<attribute name="fused_names" value="451" version="0"/>
			</rt_info>
			<input>
				<port id="0" precision="FP32">
					<dim>1</dim>
					<dim>24</dim>
					<dim>184</dim>
					<dim>328</dim>
				</port>
				<port id="1" precision="FP32">
					<dim>1</dim>
					<dim>24</dim>
					<dim>184</dim>
					<dim>328</dim>
				</port>
			</input>
			<output>
				<port id="2" names="451" precision="FP32">
					<dim>1</dim>
					<dim>24</dim>
					<dim>184</dim>
					<dim>328</dim>
				</port>
			</output>
		</layer>
		<layer id="298" name="Constant_718" type="Const" version="opset1">
			<data element_type="i64" offset="16440" shape="3" size="24"/>
			<rt_info>
				<attribute name="fused_names" value="Constant_718" version="0"/>
			</rt_info>
			<output>
				<port id="0" precision="I64">
					<dim>3</dim>
				</port>
			</output>
		</layer>
		<layer id="299" name="452" type="ReduceMean" version="opset1">
			<data keep_dims="false"/>
			<rt_info>
				<attribute name="fused_names" value="452" version="0"/>
			</rt_info>
			<input>
				<port id="0" precision="FP32">
					<dim>1</dim>
					<dim>24</dim>
					<dim>184</dim>
					<dim>328</dim>
				</port>
				<port id="1" precision="I64">
					<dim>3</dim>
				</port>
			</input>
			<output>
				<port id="2" names="452" precision="FP32">
					<dim>24</dim>
				</port>
			</output>
		</layer>
		<layer id="300" name="453" type="Sqrt" version="opset1">
			<rt_info>
				<attribute name="fused_names" value="453" version="0"/>
			</rt_info>
			<input>
				<port id="0" precision="FP32">
					<dim>24</dim>
				</port>
			</input>
			<output>
				<port id="1" names="453" precision="FP32">
					<dim>24</dim>
				</port>
			</output>
		</layer>
		<layer id="301" name="Constant_6309" type="Const" version="opset1">
			<data element_type="f32" offset="16484" shape="1" size="4"/>
			<output>
				<port id="0" precision="FP32">
					<dim>1</dim>
				</port>
			</output>
		</layer>
		<layer id="302" name="456" type="Power" version="opset1">
			<data auto_broadcast="numpy"/>
			<rt_info>
				<attribute name="fused_names" value="456" version="0"/>
			</rt_info>
			<input>
				<port id="0" precision="FP32">
					<dim>24</dim>
				</port>
				<port id="1" precision="FP32">
					<dim>1</dim>
				</port>
			</input>
			<output>
				<port id="2" names="456" precision="FP32">
					<dim>24</dim>
				</port>
			</output>
		</layer>
		<layer id="303" name="Constant_722" type="Const" version="opset1">
			<data element_type="i64" offset="16464" shape="1" size="8"/>
			<rt_info>
				<attribute name="fused_names" value="Constant_722" version="0"/>
			</rt_info>
			<output>
				<port id="0" precision="I64">
					<dim>1</dim>
				</port>
			</output>
		</layer>
		<layer id="304" name="457" type="Unsqueeze" version="opset1">
			<rt_info>
				<attribute name="fused_names" value="457" version="0"/>
			</rt_info>
			<input>
				<port id="0" precision="FP32">
					<dim>24</dim>
				</port>
				<port id="1" precision="I64">
					<dim>1</dim>
				</port>
			</input>
			<output>
				<port id="2" names="457" precision="FP32">
					<dim>24</dim>
					<dim>1</dim>
				</port>
			</output>
		</layer>
		<layer id="305" name="Constant_724" type="Const" version="opset1">
			<data element_type="i64" offset="16472" shape="1" size="8"/>
			<rt_info>
				<attribute name="fused_names" value="Constant_724" version="0"/>
			</rt_info>
			<output>
				<port id="0" precision="I64">
					<dim>1</dim>
				</port>
			</output>
		</layer>
		<layer id="306" name="458" type="Unsqueeze" version="opset1">
			<rt_info>
				<attribute name="fused_names" value="458" version="0"/>
			</rt_info>
			<input>
				<port id="0" precision="FP32">
					<dim>24</dim>
					<dim>1</dim>
				</port>
				<port id="1" precision="I64">
					<dim>1</dim>
				</port>
			</input>
			<output>
				<port id="2" names="458" precision="FP32">
					<dim>24</dim>
					<dim>1</dim>
					<dim>1</dim>
				</port>
			</output>
		</layer>
		<layer id="307" name="Constant_6310" type="Const" version="opset1">
			<data element_type="f32" offset="16488" shape="1, 1, 1" size="4"/>
			<output>
				<port id="0" precision="FP32">
					<dim>1</dim>
					<dim>1</dim>
					<dim>1</dim>
				</port>
			</output>
		</layer>
		<layer id="308" name="460" type="Add" version="opset1">
			<data auto_broadcast="numpy"/>
			<rt_info>
				<attribute name="fused_names" value="460" version="0"/>
			</rt_info>
			<input>
				<port id="0" precision="FP32">
					<dim>24</dim>
					<dim>1</dim>
					<dim>1</dim>
				</port>
				<port id="1" precision="FP32">
					<dim>1</dim>
					<dim>1</dim>
					<dim>1</dim>
				</port>
			</input>
			<output>
				<port id="2" names="460" precision="FP32">
					<dim>24</dim>
					<dim>1</dim>
					<dim>1</dim>
				</port>
			</output>
		</layer>
		<layer id="309" name="461" type="Sqrt" version="opset1">
			<rt_info>
				<attribute name="fused_names" value="461" version="0"/>
			</rt_info>
			<input>
				<port id="0" precision="FP32">
					<dim>24</dim>
					<dim>1</dim>
					<dim>1</dim>
				</port>
			</input>
			<output>
				<port id="1" names="461" precision="FP32">
					<dim>24</dim>
					<dim>1</dim>
					<dim>1</dim>
				</port>
			</output>
		</layer>
		<layer id="310" name="463" type="Divide" version="opset1">
			<data auto_broadcast="numpy" m_pythondiv="true"/>
			<rt_info>
				<attribute name="fused_names" value="463, 465" version="0"/>
			</rt_info>
			<input>
				<port id="0" precision="FP32">
					<dim>1</dim>
					<dim>1</dim>
					<dim>1</dim>
				</port>
				<port id="1" precision="FP32">
					<dim>24</dim>
					<dim>1</dim>
					<dim>1</dim>
				</port>
			</input>
			<output>
				<port id="2" names="463,465" precision="FP32">
					<dim>24</dim>
					<dim>1</dim>
					<dim>1</dim>
				</port>
			</output>
		</layer>
		<layer id="311" name="472" type="Multiply" version="opset1">
			<data auto_broadcast="numpy"/>
			<rt_info>
				<attribute name="fused_names" value="472" version="0"/>
			</rt_info>
			<input>
				<port id="0" precision="FP32">
					<dim>1</dim>
					<dim>24</dim>
					<dim>184</dim>
					<dim>328</dim>
				</port>
				<port id="1" precision="FP32">
					<dim>24</dim>
					<dim>1</dim>
					<dim>1</dim>
				</port>
			</input>
			<output>
				<port id="2" names="472" precision="FP32">
					<dim>1</dim>
					<dim>24</dim>
					<dim>184</dim>
					<dim>328</dim>
				</port>
			</output>
		</layer>
		<layer id="312" name="Constant_6312" type="Const" version="opset1">
			<data element_type="f32" offset="74924" shape="1, 24, 1, 1" size="96"/>
			<output>
				<port id="0" precision="FP32">
					<dim>1</dim>
					<dim>24</dim>
					<dim>1</dim>
					<dim>1</dim>
				</port>
			</output>
		</layer>
		<layer id="313" name="475" type="Add" version="opset1">
			<data auto_broadcast="numpy"/>
			<rt_info>
				<attribute name="fused_names" value="475" version="0"/>
			</rt_info>
			<input>
				<port id="0" precision="FP32">
					<dim>1</dim>
					<dim>24</dim>
					<dim>184</dim>
					<dim>328</dim>
				</port>
				<port id="1" precision="FP32">
					<dim>1</dim>
					<dim>24</dim>
					<dim>1</dim>
					<dim>1</dim>
				</port>
			</input>
			<output>
				<port id="2" names="475" precision="FP32">
					<dim>1</dim>
					<dim>24</dim>
					<dim>184</dim>
					<dim>328</dim>
				</port>
			</output>
		</layer>
		<layer id="314" name="476" type="Add" version="opset1">
			<data auto_broadcast="numpy"/>
			<rt_info>
				<attribute name="fused_names" value="476" version="0"/>
			</rt_info>
			<input>
				<port id="0" precision="FP32">
					<dim>1</dim>
					<dim>24</dim>
					<dim>184</dim>
					<dim>328</dim>
				</port>
				<port id="1" precision="FP32">
					<dim>1</dim>
					<dim>24</dim>
					<dim>184</dim>
					<dim>328</dim>
				</port>
			</input>
			<output>
				<port id="2" names="476" precision="FP32">
					<dim>1</dim>
					<dim>24</dim>
					<dim>184</dim>
					<dim>328</dim>
				</port>
			</output>
		</layer>
		<layer id="315" name="impl.module.fpn.features.4.conv.0.weight" type="Const" version="opset1">
			<data element_type="f32" offset="75020" shape="144, 24, 1, 1" size="13824"/>
			<rt_info>
				<attribute name="fused_names" value="impl.module.fpn.features.4.conv.0.weight" version="0"/>
			</rt_info>
			<output>
				<port id="0" names="impl.module.fpn.features.4.conv.0.weight" precision="FP32">
					<dim>144</dim>
					<dim>24</dim>
					<dim>1</dim>
					<dim>1</dim>
				</port>
			</output>
		</layer>
		<layer id="316" name="477" type="Convolution" version="opset1">
			<data auto_pad="explicit" dilations="1, 1" pads_begin="0, 0" pads_end="0, 0" strides="1, 1"/>
			<rt_info>
				<attribute name="fused_names" value="477" version="0"/>
			</rt_info>
			<input>
				<port id="0" precision="FP32">
					<dim>1</dim>
					<dim>24</dim>
					<dim>184</dim>
					<dim>328</dim>
				</port>
				<port id="1" precision="FP32">
					<dim>144</dim>
					<dim>24</dim>
					<dim>1</dim>
					<dim>1</dim>
				</port>
			</input>
			<output>
				<port id="2" names="477" precision="FP32">
					<dim>1</dim>
					<dim>144</dim>
					<dim>184</dim>
					<dim>328</dim>
				</port>
			</output>
		</layer>
		<layer id="317" name="Constant_744" type="Const" version="opset1">
			<data element_type="i64" offset="16440" shape="3" size="24"/>
			<rt_info>
				<attribute name="fused_names" value="Constant_744" version="0"/>
			</rt_info>
			<output>
				<port id="0" precision="I64">
					<dim>3</dim>
				</port>
			</output>
		</layer>
		<layer id="318" name="478" type="ReduceMean" version="opset1">
			<data keep_dims="false"/>
			<rt_info>
				<attribute name="fused_names" value="478" version="0"/>
			</rt_info>
			<input>
				<port id="0" precision="FP32">
					<dim>1</dim>
					<dim>144</dim>
					<dim>184</dim>
					<dim>328</dim>
				</port>
				<port id="1" precision="I64">
					<dim>3</dim>
				</port>
			</input>
			<output>
				<port id="2" names="478" precision="FP32">
					<dim>144</dim>
				</port>
			</output>
		</layer>
		<layer id="319" name="Constant_765" type="Const" version="opset1">
			<data element_type="i64" offset="16464" shape="1" size="8"/>
			<rt_info>
				<attribute name="fused_names" value="Constant_765" version="0"/>
			</rt_info>
			<output>
				<port id="0" precision="I64">
					<dim>1</dim>
				</port>
			</output>
		</layer>
		<layer id="320" name="498" type="Unsqueeze" version="opset1">
			<rt_info>
				<attribute name="fused_names" value="498" version="0"/>
			</rt_info>
			<input>
				<port id="0" precision="FP32">
					<dim>144</dim>
				</port>
				<port id="1" precision="I64">
					<dim>1</dim>
				</port>
			</input>
			<output>
				<port id="2" names="498" precision="FP32">
					<dim>144</dim>
					<dim>1</dim>
				</port>
			</output>
		</layer>
		<layer id="321" name="Constant_767" type="Const" version="opset1">
			<data element_type="i64" offset="16472" shape="1" size="8"/>
			<rt_info>
				<attribute name="fused_names" value="Constant_767" version="0"/>
			</rt_info>
			<output>
				<port id="0" precision="I64">
					<dim>1</dim>
				</port>
			</output>
		</layer>
		<layer id="322" name="499" type="Unsqueeze" version="opset1">
			<rt_info>
				<attribute name="fused_names" value="499" version="0"/>
			</rt_info>
			<input>
				<port id="0" precision="FP32">
					<dim>144</dim>
					<dim>1</dim>
				</port>
				<port id="1" precision="I64">
					<dim>1</dim>
				</port>
			</input>
			<output>
				<port id="2" names="499" precision="FP32">
					<dim>144</dim>
					<dim>1</dim>
					<dim>1</dim>
				</port>
			</output>
		</layer>
		<layer id="323" name="500" type="Subtract" version="opset1">
			<data auto_broadcast="numpy"/>
			<rt_info>
				<attribute name="fused_names" value="500" version="0"/>
			</rt_info>
			<input>
				<port id="0" precision="FP32">
					<dim>1</dim>
					<dim>144</dim>
					<dim>184</dim>
					<dim>328</dim>
				</port>
				<port id="1" precision="FP32">
					<dim>144</dim>
					<dim>1</dim>
					<dim>1</dim>
				</port>
			</input>
			<output>
				<port id="2" names="500" precision="FP32">
					<dim>1</dim>
					<dim>144</dim>
					<dim>184</dim>
					<dim>328</dim>
				</port>
			</output>
		</layer>
		<layer id="324" name="501" type="Multiply" version="opset1">
			<data auto_broadcast="numpy"/>
			<rt_info>
				<attribute name="fused_names" value="501" version="0"/>
			</rt_info>
			<input>
				<port id="0" precision="FP32">
					<dim>1</dim>
					<dim>144</dim>
					<dim>1</dim>
					<dim>1</dim>
				</port>
				<port id="1" precision="FP32">
					<dim>1</dim>
					<dim>144</dim>
					<dim>184</dim>
					<dim>328</dim>
				</port>
			</input>
			<output>
				<port id="2" names="501" precision="FP32">
					<dim>1</dim>
					<dim>144</dim>
					<dim>184</dim>
					<dim>328</dim>
				</port>
			</output>
		</layer>
		<layer id="325" name="Constant_6316" type="Const" version="opset1">
			<data element_type="f32" offset="16480" shape="1, 1, 1" size="4"/>
			<output>
				<port id="0" precision="FP32">
					<dim>1</dim>
					<dim>1</dim>
					<dim>1</dim>
				</port>
			</output>
		</layer>
		<layer id="326" name="Constant_746" type="Const" version="opset1">
			<data element_type="i64" offset="16440" shape="3" size="24"/>
			<rt_info>
				<attribute name="fused_names" value="Constant_746" version="0"/>
			</rt_info>
			<output>
				<port id="0" precision="I64">
					<dim>3</dim>
				</port>
			</output>
		</layer>
		<layer id="327" name="479" type="ReduceMean" version="opset1">
			<data keep_dims="true"/>
			<rt_info>
				<attribute name="fused_names" value="479" version="0"/>
			</rt_info>
			<input>
				<port id="0" precision="FP32">
					<dim>1</dim>
					<dim>144</dim>
					<dim>184</dim>
					<dim>328</dim>
				</port>
				<port id="1" precision="I64">
					<dim>3</dim>
				</port>
			</input>
			<output>
				<port id="2" names="479" precision="FP32">
					<dim>1</dim>
					<dim>144</dim>
					<dim>1</dim>
					<dim>1</dim>
				</port>
			</output>
		</layer>
		<layer id="328" name="480" type="Subtract" version="opset1">
			<data auto_broadcast="numpy"/>
			<rt_info>
				<attribute name="fused_names" value="480" version="0"/>
			</rt_info>
			<input>
				<port id="0" precision="FP32">
					<dim>1</dim>
					<dim>144</dim>
					<dim>184</dim>
					<dim>328</dim>
				</port>
				<port id="1" precision="FP32">
					<dim>1</dim>
					<dim>144</dim>
					<dim>1</dim>
					<dim>1</dim>
				</port>
			</input>
			<output>
				<port id="2" names="480" precision="FP32">
					<dim>1</dim>
					<dim>144</dim>
					<dim>184</dim>
					<dim>328</dim>
				</port>
			</output>
		</layer>
		<layer id="329" name="481" type="Multiply" version="opset1">
			<data auto_broadcast="numpy"/>
			<rt_info>
				<attribute name="fused_names" value="481" version="0"/>
			</rt_info>
			<input>
				<port id="0" precision="FP32">
					<dim>1</dim>
					<dim>144</dim>
					<dim>184</dim>
					<dim>328</dim>
				</port>
				<port id="1" precision="FP32">
					<dim>1</dim>
					<dim>144</dim>
					<dim>184</dim>
					<dim>328</dim>
				</port>
			</input>
			<output>
				<port id="2" names="481" precision="FP32">
					<dim>1</dim>
					<dim>144</dim>
					<dim>184</dim>
					<dim>328</dim>
				</port>
			</output>
		</layer>
		<layer id="330" name="Constant_750" type="Const" version="opset1">
			<data element_type="i64" offset="16440" shape="3" size="24"/>
			<rt_info>
				<attribute name="fused_names" value="Constant_750" version="0"/>
			</rt_info>
			<output>
				<port id="0" precision="I64">
					<dim>3</dim>
				</port>
			</output>
		</layer>
		<layer id="331" name="482" type="ReduceMean" version="opset1">
			<data keep_dims="false"/>
			<rt_info>
				<attribute name="fused_names" value="482" version="0"/>
			</rt_info>
			<input>
				<port id="0" precision="FP32">
					<dim>1</dim>
					<dim>144</dim>
					<dim>184</dim>
					<dim>328</dim>
				</port>
				<port id="1" precision="I64">
					<dim>3</dim>
				</port>
			</input>
			<output>
				<port id="2" names="482" precision="FP32">
					<dim>144</dim>
				</port>
			</output>
		</layer>
		<layer id="332" name="483" type="Sqrt" version="opset1">
			<rt_info>
				<attribute name="fused_names" value="483" version="0"/>
			</rt_info>
			<input>
				<port id="0" precision="FP32">
					<dim>144</dim>
				</port>
			</input>
			<output>
				<port id="1" names="483" precision="FP32">
					<dim>144</dim>
				</port>
			</output>
		</layer>
		<layer id="333" name="Constant_6314" type="Const" version="opset1">
			<data element_type="f32" offset="16484" shape="1" size="4"/>
			<output>
				<port id="0" precision="FP32">
					<dim>1</dim>
				</port>
			</output>
		</layer>
		<layer id="334" name="486" type="Power" version="opset1">
			<data auto_broadcast="numpy"/>
			<rt_info>
				<attribute name="fused_names" value="486" version="0"/>
			</rt_info>
			<input>
				<port id="0" precision="FP32">
					<dim>144</dim>
				</port>
				<port id="1" precision="FP32">
					<dim>1</dim>
				</port>
			</input>
			<output>
				<port id="2" names="486" precision="FP32">
					<dim>144</dim>
				</port>
			</output>
		</layer>
		<layer id="335" name="Constant_754" type="Const" version="opset1">
			<data element_type="i64" offset="16464" shape="1" size="8"/>
			<rt_info>
				<attribute name="fused_names" value="Constant_754" version="0"/>
			</rt_info>
			<output>
				<port id="0" precision="I64">
					<dim>1</dim>
				</port>
			</output>
		</layer>
		<layer id="336" name="487" type="Unsqueeze" version="opset1">
			<rt_info>
				<attribute name="fused_names" value="487" version="0"/>
			</rt_info>
			<input>
				<port id="0" precision="FP32">
					<dim>144</dim>
				</port>
				<port id="1" precision="I64">
					<dim>1</dim>
				</port>
			</input>
			<output>
				<port id="2" names="487" precision="FP32">
					<dim>144</dim>
					<dim>1</dim>
				</port>
			</output>
		</layer>
		<layer id="337" name="Constant_756" type="Const" version="opset1">
			<data element_type="i64" offset="16472" shape="1" size="8"/>
			<rt_info>
				<attribute name="fused_names" value="Constant_756" version="0"/>
			</rt_info>
			<output>
				<port id="0" precision="I64">
					<dim>1</dim>
				</port>
			</output>
		</layer>
		<layer id="338" name="488" type="Unsqueeze" version="opset1">
			<rt_info>
…
		<edge from-layer="1030" from-port="2" to-layer="1031" to-port="0"/>
		<edge from-layer="1031" from-port="1" to-layer="1033" to-port="0"/>
		<edge from-layer="1032" from-port="0" to-layer="1033" to-port="1"/>
		<edge from-layer="1033" from-port="2" to-layer="1040" to-port="0"/>
		<edge from-layer="1033" from-port="2" to-layer="1045" to-port="0"/>
		<edge from-layer="1033" from-port="2" to-layer="1044" to-port="0"/>
		<edge from-layer="1033" from-port="2" to-layer="1035" to-port="0"/>
		<edge from-layer="1034" from-port="0" to-layer="1035" to-port="1"/>
		<edge from-layer="1035" from-port="2" to-layer="1037" to-port="0"/>
		<edge from-layer="1036" from-port="0" to-layer="1037" to-port="1"/>
		<edge from-layer="1037" from-port="2" to-layer="1039" to-port="0"/>
		<edge from-layer="1038" from-port="0" to-layer="1039" to-port="1"/>
		<edge from-layer="1039" from-port="2" to-layer="1040" to-port="1"/>
		<edge from-layer="1040" from-port="2" to-layer="1041" to-port="1"/>
		<edge from-layer="1041" from-port="2" to-layer="1060" to-port="0"/>
		<edge from-layer="1042" from-port="0" to-layer="1059" to-port="0"/>
		<edge from-layer="1043" from-port="0" to-layer="1044" to-port="1"/>
		<edge from-layer="1044" from-port="2" to-layer="1045" to-port="1"/>
		<edge from-layer="1045" from-port="2" to-layer="1046" to-port="1"/>
		<edge from-layer="1045" from-port="2" to-layer="1046" to-port="0"/>
		<edge from-layer="1046" from-port="2" to-layer="1048" to-port="0"/>
		<edge from-layer="1047" from-port="0" to-layer="1048" to-port="1"/>
		<edge from-layer="1048" from-port="2" to-layer="1049" to-port="0"/>
		<edge from-layer="1049" from-port="1" to-layer="1051" to-port="0"/>
		<edge from-layer="1050" from-port="0" to-layer="1051" to-port="1"/>
		<edge from-layer="1051" from-port="2" to-layer="1053" to-port="0"/>
		<edge from-layer="1052" from-port="0" to-layer="1053" to-port="1"/>
		<edge from-layer="1053" from-port="2" to-layer="1055" to-port="0"/>
		<edge from-layer="1054" from-port="0" to-layer="1055" to-port="1"/>
		<edge from-layer="1055" from-port="2" to-layer="1057" to-port="0"/>
		<edge from-layer="1056" from-port="0" to-layer="1057" to-port="1"/>
		<edge from-layer="1057" from-port="2" to-layer="1058" to-port="0"/>
		<edge from-layer="1058" from-port="1" to-layer="1059" to-port="1"/>
		<edge from-layer="1059" from-port="2" to-layer="1060" to-port="1"/>
		<edge from-layer="1060" from-port="2" to-layer="1062" to-port="0"/>
		<edge from-layer="1061" from-port="0" to-layer="1062" to-port="1"/>
		<edge from-layer="1062" from-port="2" to-layer="1063" to-port="0"/>
		<edge from-layer="1063" from-port="1" to-layer="1065" to-port="0"/>
		<edge from-layer="1064" from-port="0" to-layer="1065" to-port="1"/>
		<edge from-layer="1065" from-port="2" to-layer="1067" to-port="0"/>
		<edge from-layer="1065" from-port="2" to-layer="1077" to-port="0"/>
		<edge from-layer="1065" from-port="2" to-layer="1076" to-port="0"/>
		<edge from-layer="1065" from-port="2" to-layer="1072" to-port="0"/>
		<edge from-layer="1066" from-port="0" to-layer="1067" to-port="1"/>
		<edge from-layer="1067" from-port="2" to-layer="1069" to-port="0"/>
		<edge from-layer="1068" from-port="0" to-layer="1069" to-port="1"/>
		<edge from-layer="1069" from-port="2" to-layer="1071" to-port="0"/>
		<edge from-layer="1070" from-port="0" to-layer="1071" to-port="1"/>
		<edge from-layer="1071" from-port="2" to-layer="1072" to-port="1"/>
		<edge from-layer="1072" from-port="2" to-layer="1073" to-port="1"/>
		<edge from-layer="1073" from-port="2" to-layer="1092" to-port="0"/>
		<edge from-layer="1074" from-port="0" to-layer="1091" to-port="0"/>
		<edge from-layer="1075" from-port="0" to-layer="1076" to-port="1"/>
		<edge from-layer="1076" from-port="2" to-layer="1077" to-port="1"/>
		<edge from-layer="1077" from-port="2" to-layer="1078" to-port="0"/>
		<edge from-layer="1077" from-port="2" to-layer="1078" to-port="1"/>
		<edge from-layer="1078" from-port="2" to-layer="1080" to-port="0"/>
		<edge from-layer="1079" from-port="0" to-layer="1080" to-port="1"/>
		<edge from-layer="1080" from-port="2" to-layer="1081" to-port="0"/>
		<edge from-layer="1081" from-port="1" to-layer="1083" to-port="0"/>
		<edge from-layer="1082" from-port="0" to-layer="1083" to-port="1"/>
		<edge from-layer="1083" from-port="2" to-layer="1085" to-port="0"/>
		<edge from-layer="1084" from-port="0" to-layer="1085" to-port="1"/>
		<edge from-layer="1085" from-port="2" to-layer="1087" to-port="0"/>
		<edge from-layer="1086" from-port="0" to-layer="1087" to-port="1"/>
		<edge from-layer="1087" from-port="2" to-layer="1089" to-port="0"/>
		<edge from-layer="1088" from-port="0" to-layer="1089" to-port="1"/>
		<edge from-layer="1089" from-port="2" to-layer="1090" to-port="0"/>
		<edge from-layer="1090" from-port="1" to-layer="1091" to-port="1"/>
		<edge from-layer="1091" from-port="2" to-layer="1092" to-port="1"/>
		<edge from-layer="1092" from-port="2" to-layer="1094" to-port="0"/>
		<edge from-layer="1093" from-port="0" to-layer="1094" to-port="1"/>
		<edge from-layer="1094" from-port="2" to-layer="1193" to-port="0"/>
		<edge from-layer="1094" from-port="2" to-layer="1099" to-port="0"/>
		<edge from-layer="1095" from-port="0" to-layer="1171" to-port="0"/>
		<edge from-layer="1096" from-port="0" to-layer="1139" to-port="0"/>
		<edge from-layer="1097" from-port="0" to-layer="1107" to-port="0"/>
		<edge from-layer="1098" from-port="0" to-layer="1099" to-port="1"/>
		<edge from-layer="1099" from-port="2" to-layer="1101" to-port="0"/>
		<edge from-layer="1099" from-port="2" to-layer="1106" to-port="0"/>
		<edge from-layer="1099" from-port="2" to-layer="1110" to-port="0"/>
		<edge from-layer="1099" from-port="2" to-layer="1111" to-port="0"/>
		<edge from-layer="1100" from-port="0" to-layer="1101" to-port="1"/>
		<edge from-layer="1101" from-port="2" to-layer="1103" to-port="0"/>
		<edge from-layer="1102" from-port="0" to-layer="1103" to-port="1"/>
		<edge from-layer="1103" from-port="2" to-layer="1105" to-port="0"/>
		<edge from-layer="1104" from-port="0" to-layer="1105" to-port="1"/>
		<edge from-layer="1105" from-port="2" to-layer="1106" to-port="1"/>
		<edge from-layer="1106" from-port="2" to-layer="1107" to-port="1"/>
		<edge from-layer="1107" from-port="2" to-layer="1126" to-port="0"/>
		<edge from-layer="1108" from-port="0" to-layer="1125" to-port="0"/>
		<edge from-layer="1109" from-port="0" to-layer="1110" to-port="1"/>
		<edge from-layer="1110" from-port="2" to-layer="1111" to-port="1"/>
		<edge from-layer="1111" from-port="2" to-layer="1112" to-port="0"/>
		<edge from-layer="1111" from-port="2" to-layer="1112" to-port="1"/>
		<edge from-layer="1112" from-port="2" to-layer="1114" to-port="0"/>
		<edge from-layer="1113" from-port="0" to-layer="1114" to-port="1"/>
		<edge from-layer="1114" from-port="2" to-layer="1115" to-port="0"/>
		<edge from-layer="1115" from-port="1" to-layer="1117" to-port="0"/>
		<edge from-layer="1116" from-port="0" to-layer="1117" to-port="1"/>
		<edge from-layer="1117" from-port="2" to-layer="1119" to-port="0"/>
		<edge from-layer="1118" from-port="0" to-layer="1119" to-port="1"/>
		<edge from-layer="1119" from-port="2" to-layer="1121" to-port="0"/>
		<edge from-layer="1120" from-port="0" to-layer="1121" to-port="1"/>
		<edge from-layer="1121" from-port="2" to-layer="1123" to-port="0"/>
		<edge from-layer="1122" from-port="0" to-layer="1123" to-port="1"/>
		<edge from-layer="1123" from-port="2" to-layer="1124" to-port="0"/>
		<edge from-layer="1124" from-port="1" to-layer="1125" to-port="1"/>
		<edge from-layer="1125" from-port="2" to-layer="1126" to-port="1"/>
		<edge from-layer="1126" from-port="2" to-layer="1128" to-port="0"/>
		<edge from-layer="1127" from-port="0" to-layer="1128" to-port="1"/>
		<edge from-layer="1128" from-port="2" to-layer="1129" to-port="0"/>
		<edge from-layer="1129" from-port="1" to-layer="1131" to-port="0"/>
		<edge from-layer="1130" from-port="0" to-layer="1131" to-port="1"/>
		<edge from-layer="1131" from-port="2" to-layer="1142" to-port="0"/>
		<edge from-layer="1131" from-port="2" to-layer="1143" to-port="0"/>
		<edge from-layer="1131" from-port="2" to-layer="1138" to-port="0"/>
		<edge from-layer="1131" from-port="2" to-layer="1133" to-port="0"/>
		<edge from-layer="1132" from-port="0" to-layer="1133" to-port="1"/>
		<edge from-layer="1133" from-port="2" to-layer="1135" to-port="0"/>
		<edge from-layer="1134" from-port="0" to-layer="1135" to-port="1"/>
		<edge from-layer="1135" from-port="2" to-layer="1137" to-port="0"/>
		<edge from-layer="1136" from-port="0" to-layer="1137" to-port="1"/>
		<edge from-layer="1137" from-port="2" to-layer="1138" to-port="1"/>
		<edge from-layer="1138" from-port="2" to-layer="1139" to-port="1"/>
		<edge from-layer="1139" from-port="2" to-layer="1158" to-port="0"/>
		<edge from-layer="1140" from-port="0" to-layer="1157" to-port="0"/>
		<edge from-layer="1141" from-port="0" to-layer="1142" to-port="1"/>
		<edge from-layer="1142" from-port="2" to-layer="1143" to-port="1"/>
		<edge from-layer="1143" from-port="2" to-layer="1144" to-port="1"/>
		<edge from-layer="1143" from-port="2" to-layer="1144" to-port="0"/>
		<edge from-layer="1144" from-port="2" to-layer="1146" to-port="0"/>
		<edge from-layer="1145" from-port="0" to-layer="1146" to-port="1"/>
		<edge from-layer="1146" from-port="2" to-layer="1147" to-port="0"/>
		<edge from-layer="1147" from-port="1" to-layer="1149" to-port="0"/>
		<edge from-layer="1148" from-port="0" to-layer="1149" to-port="1"/>
		<edge from-layer="1149" from-port="2" to-layer="1151" to-port="0"/>
		<edge from-layer="1150" from-port="0" to-layer="1151" to-port="1"/>
		<edge from-layer="1151" from-port="2" to-layer="1153" to-port="0"/>
		<edge from-layer="1152" from-port="0" to-layer="1153" to-port="1"/>
		<edge from-layer="1153" from-port="2" to-layer="1155" to-port="0"/>
		<edge from-layer="1154" from-port="0" to-layer="1155" to-port="1"/>
		<edge from-layer="1155" from-port="2" to-layer="1156" to-port="0"/>
		<edge from-layer="1156" from-port="1" to-layer="1157" to-port="1"/>
		<edge from-layer="1157" from-port="2" to-layer="1158" to-port="1"/>
		<edge from-layer="1158" from-port="2" to-layer="1160" to-port="0"/>
		<edge from-layer="1159" from-port="0" to-layer="1160" to-port="1"/>
		<edge from-layer="1160" from-port="2" to-layer="1161" to-port="0"/>
		<edge from-layer="1161" from-port="1" to-layer="1163" to-port="0"/>
		<edge from-layer="1162" from-port="0" to-layer="1163" to-port="1"/>
		<edge from-layer="1163" from-port="2" to-layer="1170" to-port="0"/>
		<edge from-layer="1163" from-port="2" to-layer="1165" to-port="0"/>
		<edge from-layer="1163" from-port="2" to-layer="1174" to-port="0"/>
		<edge from-layer="1163" from-port="2" to-layer="1175" to-port="0"/>
		<edge from-layer="1164" from-port="0" to-layer="1165" to-port="1"/>
		<edge from-layer="1165" from-port="2" to-layer="1167" to-port="0"/>
		<edge from-layer="1166" from-port="0" to-layer="1167" to-port="1"/>
		<edge from-layer="1167" from-port="2" to-layer="1169" to-port="0"/>
		<edge from-layer="1168" from-port="0" to-layer="1169" to-port="1"/>
		<edge from-layer="1169" from-port="2" to-layer="1170" to-port="1"/>
		<edge from-layer="1170" from-port="2" to-layer="1171" to-port="1"/>
		<edge from-layer="1171" from-port="2" to-layer="1190" to-port="0"/>
		<edge from-layer="1172" from-port="0" to-layer="1189" to-port="0"/>
		<edge from-layer="1173" from-port="0" to-layer="1174" to-port="1"/>
		<edge from-layer="1174" from-port="2" to-layer="1175" to-port="1"/>
		<edge from-layer="1175" from-port="2" to-layer="1176" to-port="0"/>
		<edge from-layer="1175" from-port="2" to-layer="1176" to-port="1"/>
		<edge from-layer="1176" from-port="2" to-layer="1178" to-port="0"/>
		<edge from-layer="1177" from-port="0" to-layer="1178" to-port="1"/>
		<edge from-layer="1178" from-port="2" to-layer="1179" to-port="0"/>
		<edge from-layer="1179" from-port="1" to-layer="1181" to-port="0"/>
		<edge from-layer="1180" from-port="0" to-layer="1181" to-port="1"/>
		<edge from-layer="1181" from-port="2" to-layer="1183" to-port="0"/>
		<edge from-layer="1182" from-port="0" to-layer="1183" to-port="1"/>
		<edge from-layer="1183" from-port="2" to-layer="1185" to-port="0"/>
		<edge from-layer="1184" from-port="0" to-layer="1185" to-port="1"/>
		<edge from-layer="1185" from-port="2" to-layer="1187" to-port="0"/>
		<edge from-layer="1186" from-port="0" to-layer="1187" to-port="1"/>
		<edge from-layer="1187" from-port="2" to-layer="1188" to-port="0"/>
		<edge from-layer="1188" from-port="1" to-layer="1189" to-port="1"/>
		<edge from-layer="1189" from-port="2" to-layer="1190" to-port="1"/>
		<edge from-layer="1190" from-port="2" to-layer="1192" to-port="0"/>
		<edge from-layer="1191" from-port="0" to-layer="1192" to-port="1"/>
		<edge from-layer="1192" from-port="2" to-layer="1193" to-port="1"/>
		<edge from-layer="1193" from-port="2" to-layer="1198" to-port="0"/>
		<edge from-layer="1193" from-port="2" to-layer="1292" to-port="0"/>
		<edge from-layer="1194" from-port="0" to-layer="1270" to-port="0"/>
		<edge from-layer="1195" from-port="0" to-layer="1238" to-port="0"/>
		<edge from-layer="1196" from-port="0" to-layer="1206" to-port="0"/>
		<edge from-layer="1197" from-port="0" to-layer="1198" to-port="1"/>
		<edge from-layer="1198" from-port="2" to-layer="1210" to-port="0"/>
		<edge from-layer="1198" from-port="2" to-layer="1200" to-port="0"/>
		<edge from-layer="1198" from-port="2" to-layer="1205" to-port="0"/>
		<edge from-layer="1198" from-port="2" to-layer="1209" to-port="0"/>
		<edge from-layer="1199" from-port="0" to-layer="1200" to-port="1"/>
		<edge from-layer="1200" from-port="2" to-layer="1202" to-port="0"/>
		<edge from-layer="1201" from-port="0" to-layer="1202" to-port="1"/>
		<edge from-layer="1202" from-port="2" to-layer="1204" to-port="0"/>
		<edge from-layer="1203" from-port="0" to-layer="1204" to-port="1"/>
		<edge from-layer="1204" from-port="2" to-layer="1205" to-port="1"/>
		<edge from-layer="1205" from-port="2" to-layer="1206" to-port="1"/>
		<edge from-layer="1206" from-port="2" to-layer="1225" to-port="0"/>
		<edge from-layer="1207" from-port="0" to-layer="1224" to-port="0"/>
		<edge from-layer="1208" from-port="0" to-layer="1209" to-port="1"/>
		<edge from-layer="1209" from-port="2" to-layer="1210" to-port="1"/>
		<edge from-layer="1210" from-port="2" to-layer="1211" to-port="0"/>
		<edge from-layer="1210" from-port="2" to-layer="1211" to-port="1"/>
		<edge from-layer="1211" from-port="2" to-layer="1213" to-port="0"/>
		<edge from-layer="1212" from-port="0" to-layer="1213" to-port="1"/>
		<edge from-layer="1213" from-port="2" to-layer="1214" to-port="0"/>
		<edge from-layer="1214" from-port="1" to-layer="1216" to-port="0"/>
		<edge from-layer="1215" from-port="0" to-layer="1216" to-port="1"/>
		<edge from-layer="1216" from-port="2" to-layer="1218" to-port="0"/>
		<edge from-layer="1217" from-port="0" to-layer="1218" to-port="1"/>
		<edge from-layer="1218" from-port="2" to-layer="1220" to-port="0"/>
		<edge from-layer="1219" from-port="0" to-layer="1220" to-port="1"/>
		<edge from-layer="1220" from-port="2" to-layer="1222" to-port="0"/>
		<edge from-layer="1221" from-port="0" to-layer="1222" to-port="1"/>
		<edge from-layer="1222" from-port="2" to-layer="1223" to-port="0"/>
		<edge from-layer="1223" from-port="1" to-layer="1224" to-port="1"/>
		<edge from-layer="1224" from-port="2" to-layer="1225" to-port="1"/>
		<edge from-layer="1225" from-port="2" to-layer="1227" to-port="0"/>
		<edge from-layer="1226" from-port="0" to-layer="1227" to-port="1"/>
		<edge from-layer="1227" from-port="2" to-layer="1228" to-port="0"/>
		<edge from-layer="1228" from-port="1" to-layer="1230" to-port="0"/>
		<edge from-layer="1229" from-port="0" to-layer="1230" to-port="1"/>
		<edge from-layer="1230" from-port="2" to-layer="1237" to-port="0"/>
		<edge from-layer="1230" from-port="2" to-layer="1232" to-port="0"/>
		<edge from-layer="1230" from-port="2" to-layer="1241" to-port="0"/>
		<edge from-layer="1230" from-port="2" to-layer="1242" to-port="0"/>
		<edge from-layer="1231" from-port="0" to-layer="1232" to-port="1"/>
		<edge from-layer="1232" from-port="2" to-layer="1234" to-port="0"/>
		<edge from-layer="1233" from-port="0" to-layer="1234" to-port="1"/>
		<edge from-layer="1234" from-port="2" to-layer="1236" to-port="0"/>
		<edge from-layer="1235" from-port="0" to-layer="1236" to-port="1"/>
		<edge from-layer="1236" from-port="2" to-layer="1237" to-port="1"/>
		<edge from-layer="1237" from-port="2" to-layer="1238" to-port="1"/>
		<edge from-layer="1238" from-port="2" to-layer="1257" to-port="0"/>
		<edge from-layer="1239" from-port="0" to-layer="1256" to-port="0"/>
		<edge from-layer="1240" from-port="0" to-layer="1241" to-port="1"/>
		<edge from-layer="1241" from-port="2" to-layer="1242" to-port="1"/>
		<edge from-layer="1242" from-port="2" to-layer="1243" to-port="0"/>
		<edge from-layer="1242" from-port="2" to-layer="1243" to-port="1"/>
		<edge from-layer="1243" from-port="2" to-layer="1245" to-port="0"/>
		<edge from-layer="1244" from-port="0" to-layer="1245" to-port="1"/>
		<edge from-layer="1245" from-port="2" to-layer="1246" to-port="0"/>
		<edge from-layer="1246" from-port="1" to-layer="1248" to-port="0"/>
		<edge from-layer="1247" from-port="0" to-layer="1248" to-port="1"/>
		<edge from-layer="1248" from-port="2" to-layer="1250" to-port="0"/>
		<edge from-layer="1249" from-port="0" to-layer="1250" to-port="1"/>
		<edge from-layer="1250" from-port="2" to-layer="1252" to-port="0"/>
		<edge from-layer="1251" from-port="0" to-layer="1252" to-port="1"/>
		<edge from-layer="1252" from-port="2" to-layer="1254" to-port="0"/>
		<edge from-layer="1253" from-port="0" to-layer="1254" to-port="1"/>
		<edge from-layer="1254" from-port="2" to-layer="1255" to-port="0"/>
		<edge from-layer="1255" from-port="1" to-layer="1256" to-port="1"/>
		<edge from-layer="1256" from-port="2" to-layer="1257" to-port="1"/>
		<edge from-layer="1257" from-port="2" to-layer="1259" to-port="0"/>
		<edge from-layer="1258" from-port="0" to-layer="1259" to-port="1"/>
		<edge from-layer="1259" from-port="2" to-layer="1260" to-port="0"/>
		<edge from-layer="1260" from-port="1" to-layer="1262" to-port="0"/>
		<edge from-layer="1261" from-port="0" to-layer="1262" to-port="1"/>
		<edge from-layer="1262" from-port="2" to-layer="1264" to-port="0"/>
		<edge from-layer="1262" from-port="2" to-layer="1274" to-port="0"/>
		<edge from-layer="1262" from-port="2" to-layer="1273" to-port="0"/>
		<edge from-layer="1262" from-port="2" to-layer="1269" to-port="0"/>
		<edge from-layer="1263" from-port="0" to-layer="1264" to-port="1"/>
		<edge from-layer="1264" from-port="2" to-layer="1266" to-port="0"/>
		<edge from-layer="1265" from-port="0" to-layer="1266" to-port="1"/>
		<edge from-layer="1266" from-port="2" to-layer="1268" to-port="0"/>
		<edge from-layer="1267" from-port="0" to-layer="1268" to-port="1"/>
		<edge from-layer="1268" from-port="2" to-layer="1269" to-port="1"/>
		<edge from-layer="1269" from-port="2" to-layer="1270" to-port="1"/>
		<edge from-layer="1270" from-port="2" to-layer="1289" to-port="0"/>
		<edge from-layer="1271" from-port="0" to-layer="1288" to-port="0"/>
		<edge from-layer="1272" from-port="0" to-layer="1273" to-port="1"/>
		<edge from-layer="1273" from-port="2" to-layer="1274" to-port="1"/>
		<edge from-layer="1274" from-port="2" to-layer="1275" to-port="1"/>
		<edge from-layer="1274" from-port="2" to-layer="1275" to-port="0"/>
		<edge from-layer="1275" from-port="2" to-layer="1277" to-port="0"/>
		<edge from-layer="1276" from-port="0" to-layer="1277" to-port="1"/>
		<edge from-layer="1277" from-port="2" to-layer="1278" to-port="0"/>
		<edge from-layer="1278" from-port="1" to-layer="1280" to-port="0"/>
		<edge from-layer="1279" from-port="0" to-layer="1280" to-port="1"/>
		<edge from-layer="1280" from-port="2" to-layer="1282" to-port="0"/>
		<edge from-layer="1281" from-port="0" to-layer="1282" to-port="1"/>
		<edge from-layer="1282" from-port="2" to-layer="1284" to-port="0"/>
		<edge from-layer="1283" from-port="0" to-layer="1284" to-port="1"/>
		<edge from-layer="1284" from-port="2" to-layer="1286" to-port="0"/>
		<edge from-layer="1285" from-port="0" to-layer="1286" to-port="1"/>
		<edge from-layer="1286" from-port="2" to-layer="1287" to-port="0"/>
		<edge from-layer="1287" from-port="1" to-layer="1288" to-port="1"/>
		<edge from-layer="1288" from-port="2" to-layer="1289" to-port="1"/>
		<edge from-layer="1289" from-port="2" to-layer="1291" to-port="0"/>
		<edge from-layer="1290" from-port="0" to-layer="1291" to-port="1"/>
		<edge from-layer="1291" from-port="2" to-layer="1292" to-port="1"/>
		<edge from-layer="1292" from-port="2" to-layer="1294" to-port="0"/>
		<edge from-layer="1293" from-port="0" to-layer="1294" to-port="1"/>
		<edge from-layer="1294" from-port="2" to-layer="1296" to-port="0"/>
		<edge from-layer="1294" from-port="2" to-layer="1301" to-port="0"/>
		<edge from-layer="1294" from-port="2" to-layer="1305" to-port="0"/>
		<edge from-layer="1294" from-port="2" to-layer="1306" to-port="0"/>
		<edge from-layer="1295" from-port="0" to-layer="1296" to-port="1"/>
		<edge from-layer="1296" from-port="2" to-layer="1298" to-port="0"/>
		<edge from-layer="1297" from-port="0" to-layer="1298" to-port="1"/>
		<edge from-layer="1298" from-port="2" to-layer="1300" to-port="0"/>
		<edge from-layer="1299" from-port="0" to-layer="1300" to-port="1"/>
		<edge from-layer="1300" from-port="2" to-layer="1301" to-port="1"/>
		<edge from-layer="1301" from-port="2" to-layer="1302" to-port="1"/>
		<edge from-layer="1302" from-port="2" to-layer="1321" to-port="0"/>
		<edge from-layer="1303" from-port="0" to-layer="1320" to-port="0"/>
		<edge from-layer="1304" from-port="0" to-layer="1305" to-port="1"/>
		<edge from-layer="1305" from-port="2" to-layer="1306" to-port="1"/>
		<edge from-layer="1306" from-port="2" to-layer="1307" to-port="0"/>
		<edge from-layer="1306" from-port="2" to-layer="1307" to-port="1"/>
		<edge from-layer="1307" from-port="2" to-layer="1309" to-port="0"/>
		<edge from-layer="1308" from-port="0" to-layer="1309" to-port="1"/>
		<edge from-layer="1309" from-port="2" to-layer="1310" to-port="0"/>
		<edge from-layer="1310" from-port="1" to-layer="1312" to-port="0"/>
		<edge from-layer="1311" from-port="0" to-layer="1312" to-port="1"/>
		<edge from-layer="1312" from-port="2" to-layer="1314" to-port="0"/>
		<edge from-layer="1313" from-port="0" to-layer="1314" to-port="1"/>
		<edge from-layer="1314" from-port="2" to-layer="1316" to-port="0"/>
		<edge from-layer="1315" from-port="0" to-layer="1316" to-port="1"/>
		<edge from-layer="1316" from-port="2" to-layer="1318" to-port="0"/>
		<edge from-layer="1317" from-port="0" to-layer="1318" to-port="1"/>
		<edge from-layer="1318" from-port="2" to-layer="1319" to-port="0"/>
		<edge from-layer="1319" from-port="1" to-layer="1320" to-port="1"/>
		<edge from-layer="1320" from-port="2" to-layer="1321" to-port="1"/>
		<edge from-layer="1321" from-port="2" to-layer="1323" to-port="0"/>
		<edge from-layer="1322" from-port="0" to-layer="1323" to-port="1"/>
		<edge from-layer="1323" from-port="2" to-layer="1324" to-port="0"/>
		<edge from-layer="1324" from-port="1" to-layer="1326" to-port="0"/>
		<edge from-layer="1325" from-port="0" to-layer="1326" to-port="1"/>
		<edge from-layer="1326" from-port="2" to-layer="1328" to-port="0"/>
		<edge from-layer="1326" from-port="2" to-layer="1338" to-port="0"/>
		<edge from-layer="1326" from-port="2" to-layer="1333" to-port="0"/>
		<edge from-layer="1326" from-port="2" to-layer="1337" to-port="0"/>
		<edge from-layer="1327" from-port="0" to-layer="1328" to-port="1"/>
		<edge from-layer="1328" from-port="2" to-layer="1330" to-port="0"/>
		<edge from-layer="1329" from-port="0" to-layer="1330" to-port="1"/>
		<edge from-layer="1330" from-port="2" to-layer="1332" to-port="0"/>
		<edge from-layer="1331" from-port="0" to-layer="1332" to-port="1"/>
		<edge from-layer="1332" from-port="2" to-layer="1333" to-port="1"/>
		<edge from-layer="1333" from-port="2" to-layer="1334" to-port="1"/>
		<edge from-layer="1334" from-port="2" to-layer="1353" to-port="0"/>
		<edge from-layer="1335" from-port="0" to-layer="1352" to-port="0"/>
		<edge from-layer="1336" from-port="0" to-layer="1337" to-port="1"/>
		<edge from-layer="1337" from-port="2" to-layer="1338" to-port="1"/>
		<edge from-layer="1338" from-port="2" to-layer="1339" to-port="0"/>
		<edge from-layer="1338" from-port="2" to-layer="1339" to-port="1"/>
		<edge from-layer="1339" from-port="2" to-layer="1341" to-port="0"/>
		<edge from-layer="1340" from-port="0" to-layer="1341" to-port="1"/>
		<edge from-layer="1341" from-port="2" to-layer="1342" to-port="0"/>
		<edge from-layer="1342" from-port="1" to-layer="1344" to-port="0"/>
		<edge from-layer="1343" from-port="0" to-layer="1344" to-port="1"/>
		<edge from-layer="1344" from-port="2" to-layer="1346" to-port="0"/>
		<edge from-layer="1345" from-port="0" to-layer="1346" to-port="1"/>
		<edge from-layer="1346" from-port="2" to-layer="1348" to-port="0"/>
		<edge from-layer="1347" from-port="0" to-layer="1348" to-port="1"/>
		<edge from-layer="1348" from-port="2" to-layer="1350" to-port="0"/>
		<edge from-layer="1349" from-port="0" to-layer="1350" to-port="1"/>
		<edge from-layer="1350" from-port="2" to-layer="1351" to-port="0"/>
		<edge from-layer="1351" from-port="1" to-layer="1352" to-port="1"/>
		<edge from-layer="1352" from-port="2" to-layer="1353" to-port="1"/>
		<edge from-layer="1353" from-port="2" to-layer="1355" to-port="0"/>
		<edge from-layer="1354" from-port="0" to-layer="1355" to-port="1"/>
		<edge from-layer="1355" from-port="2" to-layer="1356" to-port="0"/>
		<edge from-layer="1356" from-port="1" to-layer="1358" to-port="0"/>
		<edge from-layer="1357" from-port="0" to-layer="1358" to-port="1"/>
		<edge from-layer="1358" from-port="2" to-layer="1360" to-port="0"/>
		<edge from-layer="1358" from-port="2" to-layer="1365" to-port="0"/>
		<edge from-layer="1358" from-port="2" to-layer="1369" to-port="0"/>
		<edge from-layer="1358" from-port="2" to-layer="1370" to-port="0"/>
		<edge from-layer="1359" from-port="0" to-layer="1360" to-port="1"/>
		<edge from-layer="1360" from-port="2" to-layer="1362" to-port="0"/>
		<edge from-layer="1361" from-port="0" to-layer="1362" to-port="1"/>
		<edge from-layer="1362" from-port="2" to-layer="1364" to-port="0"/>
		<edge from-layer="1363" from-port="0" to-layer="1364" to-port="1"/>
		<edge from-layer="1364" from-port="2" to-layer="1365" to-port="1"/>
		<edge from-layer="1365" from-port="2" to-layer="1366" to-port="1"/>
		<edge from-layer="1366" from-port="2" to-layer="1385" to-port="0"/>
		<edge from-layer="1367" from-port="0" to-layer="1384" to-port="0"/>
		<edge from-layer="1368" from-port="0" to-layer="1369" to-port="1"/>
		<edge from-layer="1369" from-port="2" to-layer="1370" to-port="1"/>
		<edge from-layer="1370" from-port="2" to-layer="1371" to-port="0"/>
		<edge from-layer="1370" from-port="2" to-layer="1371" to-port="1"/>
		<edge from-layer="1371" from-port="2" to-layer="1373" to-port="0"/>
		<edge from-layer="1372" from-port="0" to-layer="1373" to-port="1"/>
		<edge from-layer="1373" from-port="2" to-layer="1374" to-port="0"/>
		<edge from-layer="1374" from-port="1" to-layer="1376" to-port="0"/>
		<edge from-layer="1375" from-port="0" to-layer="1376" to-port="1"/>
		<edge from-layer="1376" from-port="2" to-layer="1378" to-port="0"/>
		<edge from-layer="1377" from-port="0" to-layer="1378" to-port="1"/>
		<edge from-layer="1378" from-port="2" to-layer="1380" to-port="0"/>
		<edge from-layer="1379" from-port="0" to-layer="1380" to-port="1"/>
		<edge from-layer="1380" from-port="2" to-layer="1382" to-port="0"/>
		<edge from-layer="1381" from-port="0" to-layer="1382" to-port="1"/>
		<edge from-layer="1382" from-port="2" to-layer="1383" to-port="0"/>
		<edge from-layer="1383" from-port="1" to-layer="1384" to-port="1"/>
		<edge from-layer="1384" from-port="2" to-layer="1385" to-port="1"/>
		<edge from-layer="1385" from-port="2" to-layer="1387" to-port="0"/>
		<edge from-layer="1386" from-port="0" to-layer="1387" to-port="1"/>
		<edge from-layer="1387" from-port="2" to-layer="1392" to-port="0"/>
		<edge from-layer="1387" from-port="2" to-layer="1486" to-port="0"/>
		<edge from-layer="1388" from-port="0" to-layer="1464" to-port="0"/>
		<edge from-layer="1389" from-port="0" to-layer="1432" to-port="0"/>
		<edge from-layer="1390" from-port="0" to-layer="1400" to-port="0"/>
		<edge from-layer="1391" from-port="0" to-layer="1392" to-port="1"/>
		<edge from-layer="1392" from-port="2" to-layer="1394" to-port="0"/>
		<edge from-layer="1392" from-port="2" to-layer="1403" to-port="0"/>
		<edge from-layer="1392" from-port="2" to-layer="1404" to-port="0"/>
		<edge from-layer="1392" from-port="2" to-layer="1399" to-port="0"/>
		<edge from-layer="1393" from-port="0" to-layer="1394" to-port="1"/>
		<edge from-layer="1394" from-port="2" to-layer="1396" to-port="0"/>
		<edge from-layer="1395" from-port="0" to-layer="1396" to-port="1"/>
		<edge from-layer="1396" from-port="2" to-layer="1398" to-port="0"/>
		<edge from-layer="1397" from-port="0" to-layer="1398" to-port="1"/>
		<edge from-layer="1398" from-port="2" to-layer="1399" to-port="1"/>
		<edge from-layer="1399" from-port="2" to-layer="1400" to-port="1"/>
		<edge from-layer="1400" from-port="2" to-layer="1419" to-port="0"/>
		<edge from-layer="1401" from-port="0" to-layer="1418" to-port="0"/>
		<edge from-layer="1402" from-port="0" to-layer="1403" to-port="1"/>
		<edge from-layer="1403" from-port="2" to-layer="1404" to-port="1"/>
		<edge from-layer="1404" from-port="2" to-layer="1405" to-port="1"/>
		<edge from-layer="1404" from-port="2" to-layer="1405" to-port="0"/>
		<edge from-layer="1405" from-port="2" to-layer="1407" to-port="0"/>
		<edge from-layer="1406" from-port="0" to-layer="1407" to-port="1"/>
		<edge from-layer="1407" from-port="2" to-layer="1408" to-port="0"/>
		<edge from-layer="1408" from-port="1" to-layer="1410" to-port="0"/>
		<edge from-layer="1409" from-port="0" to-layer="1410" to-port="1"/>
		<edge from-layer="1410" from-port="2" to-layer="1412" to-port="0"/>
		<edge from-layer="1411" from-port="0" to-layer="1412" to-port="1"/>
		<edge from-layer="1412" from-port="2" to-layer="1414" to-port="0"/>
		<edge from-layer="1413" from-port="0" to-layer="1414" to-port="1"/>
		<edge from-layer="1414" from-port="2" to-layer="1416" to-port="0"/>
		<edge from-layer="1415" from-port="0" to-layer="1416" to-port="1"/>
		<edge from-layer="1416" from-port="2" to-layer="1417" to-port="0"/>
		<edge from-layer="1417" from-port="1" to-layer="1418" to-port="1"/>
		<edge from-layer="1418" from-port="2" to-layer="1419" to-port="1"/>
		<edge from-layer="1419" from-port="2" to-layer="1421" to-port="0"/>
		<edge from-layer="1420" from-port="0" to-layer="1421" to-port="1"/>
		<edge from-layer="1421" from-port="2" to-layer="1422" to-port="0"/>
		<edge from-layer="1422" from-port="1" to-layer="1424" to-port="0"/>
		<edge from-layer="1423" from-port="0" to-layer="1424" to-port="1"/>
		<edge from-layer="1424" from-port="2" to-layer="1426" to-port="0"/>
		<edge from-layer="1424" from-port="2" to-layer="1436" to-port="0"/>
		<edge from-layer="1424" from-port="2" to-layer="1431" to-port="0"/>
		<edge from-layer="1424" from-port="2" to-layer="1435" to-port="0"/>
		<edge from-layer="1425" from-port="0" to-layer="1426" to-port="1"/>
		<edge from-layer="1426" from-port="2" to-layer="1428" to-port="0"/>
		<edge from-layer="1427" from-port="0" to-layer="1428" to-port="1"/>
		<edge from-layer="1428" from-port="2" to-layer="1430" to-port="0"/>
		<edge from-layer="1429" from-port="0" to-layer="1430" to-port="1"/>
		<edge from-layer="1430" from-port="2" to-layer="1431" to-port="1"/>
		<edge from-layer="1431" from-port="2" to-layer="1432" to-port="1"/>
		<edge from-layer="1432" from-port="2" to-layer="1451" to-port="0"/>
		<edge from-layer="1433" from-port="0" to-layer="1450" to-port="0"/>
		<edge from-layer="1434" from-port="0" to-layer="1435" to-port="1"/>
		<edge from-layer="1435" from-port="2" to-layer="1436" to-port="1"/>
		<edge from-layer="1436" from-port="2" to-layer="1437" to-port="1"/>
		<edge from-layer="1436" from-port="2" to-layer="1437" to-port="0"/>
		<edge from-layer="1437" from-port="2" to-layer="1439" to-port="0"/>
		<edge from-layer="1438" from-port="0" to-layer="1439" to-port="1"/>
		<edge from-layer="1439" from-port="2" to-layer="1440" to-port="0"/>
		<edge from-layer="1440" from-port="1" to-layer="1442" to-port="0"/>
		<edge from-layer="1441" from-port="0" to-layer="1442" to-port="1"/>
		<edge from-layer="1442" from-port="2" to-layer="1444" to-port="0"/>
		<edge from-layer="1443" from-port="0" to-layer="1444" to-port="1"/>
		<edge from-layer="1444" from-port="2" to-layer="1446" to-port="0"/>
		<edge from-layer="1445" from-port="0" to-layer="1446" to-port="1"/>
		<edge from-layer="1446" from-port="2" to-layer="1448" to-port="0"/>
		<edge from-layer="1447" from-port="0" to-layer="1448" to-port="1"/>
		<edge from-layer="1448" from-port="2" to-layer="1449" to-port="0"/>
		<edge from-layer="1449" from-port="1" to-layer="1450" to-port="1"/>
		<edge from-layer="1450" from-port="2" to-layer="1451" to-port="1"/>
		<edge from-layer="1451" from-port="2" to-layer="1453" to-port="0"/>
		<edge from-layer="1452" from-port="0" to-layer="1453" to-port="1"/>
		<edge from-layer="1453" from-port="2" to-layer="1454" to-port="0"/>
		<edge from-layer="1454" from-port="1" to-layer="1456" to-port="0"/>
		<edge from-layer="1455" from-port="0" to-layer="1456" to-port="1"/>
		<edge from-layer="1456" from-port="2" to-layer="1458" to-port="0"/>
		<edge from-layer="1456" from-port="2" to-layer="1463" to-port="0"/>
		<edge from-layer="1456" from-port="2" to-layer="1468" to-port="0"/>
		<edge from-layer="1456" from-port="2" to-layer="1467" to-port="0"/>
		<edge from-layer="1457" from-port="0" to-layer="1458" to-port="1"/>
		<edge from-layer="1458" from-port="2" to-layer="1460" to-port="0"/>
		<edge from-layer="1459" from-port="0" to-layer="1460" to-port="1"/>
		<edge from-layer="1460" from-port="2" to-layer="1462" to-port="0"/>
		<edge from-layer="1461" from-port="0" to-layer="1462" to-port="1"/>
		<edge from-layer="1462" from-port="2" to-layer="1463" to-port="1"/>
		<edge from-layer="1463" from-port="2" to-layer="1464" to-port="1"/>
		<edge from-layer="1464" from-port="2" to-layer="1483" to-port="0"/>
		<edge from-layer="1465" from-port="0" to-layer="1482" to-port="0"/>
		<edge from-layer="1466" from-port="0" to-layer="1467" to-port="1"/>
		<edge from-layer="1467" from-port="2" to-layer="1468" to-port="1"/>
		<edge from-layer="1468" from-port="2" to-layer="1469" to-port="1"/>
		<edge from-layer="1468" from-port="2" to-layer="1469" to-port="0"/>
		<edge from-layer="1469" from-port="2" to-layer="1471" to-port="0"/>
		<edge from-layer="1470" from-port="0" to-layer="1471" to-port="1"/>
		<edge from-layer="1471" from-port="2" to-layer="1472" to-port="0"/>
		<edge from-layer="1472" from-port="1" to-layer="1474" to-port="0"/>
		<edge from-layer="1473" from-port="0" to-layer="1474" to-port="1"/>
		<edge from-layer="1474" from-port="2" to-layer="1476" to-port="0"/>
		<edge from-layer="1475" from-port="0" to-layer="1476" to-port="1"/>
		<edge from-layer="1476" from-port="2" to-layer="1478" to-port="0"/>
		<edge from-layer="1477" from-port="0" to-layer="1478" to-port="1"/>
		<edge from-layer="1478" from-port="2" to-layer="1480" to-port="0"/>
		<edge from-layer="1479" from-port="0" to-layer="1480" to-port="1"/>
		<edge from-layer="1480" from-port="2" to-layer="1481" to-port="0"/>
		<edge from-layer="1481" from-port="1" to-layer="1482" to-port="1"/>
		<edge from-layer="1482" from-port="2" to-layer="1483" to-port="1"/>
		<edge from-layer="1483" from-port="2" to-layer="1485" to-port="0"/>
		<edge from-layer="1484" from-port="0" to-layer="1485" to-port="1"/>
		<edge from-layer="1485" from-port="2" to-layer="1486" to-port="1"/>
		<edge from-layer="1486" from-port="2" to-layer="1488" to-port="0"/>
		<edge from-layer="1487" from-port="0" to-layer="1488" to-port="1"/>
		<edge from-layer="1488" from-port="2" to-layer="1490" to-port="0"/>
		<edge from-layer="1488" from-port="2" to-layer="1503" to-port="0"/>
		<edge from-layer="1488" from-port="2" to-layer="1508" to-port="0"/>
		<edge from-layer="1489" from-port="0" to-layer="1490" to-port="1"/>
		<edge from-layer="1490" from-port="2" to-layer="1491" to-port="0"/>
		<edge from-layer="1491" from-port="1" to-layer="1493" to-port="0"/>
		<edge from-layer="1492" from-port="0" to-layer="1493" to-port="1"/>
		<edge from-layer="1493" from-port="2" to-layer="1494" to-port="0"/>
		<edge from-layer="1494" from-port="1" to-layer="1495" to-port="0"/>
		<edge from-layer="1494" from-port="1" to-layer="1500" to-port="0"/>
		<edge from-layer="1495" from-port="1" to-layer="1496" to-port="0"/>
		<edge from-layer="1496" from-port="1" to-layer="1498" to-port="0"/>
		<edge from-layer="1497" from-port="0" to-layer="1498" to-port="1"/>
		<edge from-layer="1497" from-port="0" to-layer="1500" to-port="2"/>
		<edge from-layer="1498" from-port="2" to-layer="1499" to-port="0"/>
		<edge from-layer="1499" from-port="1" to-layer="1500" to-port="1"/>
		<edge from-layer="1500" from-port="3" to-layer="1585" to-port="0"/>
		<edge from-layer="1501" from-port="0" to-layer="1502" to-port="1"/>
		<edge from-layer="1502" from-port="2" to-layer="1509" to-port="0"/>
		<edge from-layer="1503" from-port="1" to-layer="1504" to-port="0"/>
		<edge from-layer="1504" from-port="1" to-layer="1506" to-port="0"/>
		<edge from-layer="1505" from-port="0" to-layer="1508" to-port="2"/>
		<edge from-layer="1505" from-port="0" to-layer="1506" to-port="1"/>
		<edge from-layer="1506" from-port="2" to-layer="1507" to-port="0"/>
		<edge from-layer="1507" from-port="1" to-layer="1508" to-port="1"/>
		<edge from-layer="1508" from-port="3" to-layer="1509" to-port="1"/>
		<edge from-layer="1509" from-port="2" to-layer="1511" to-port="0"/>
		<edge from-layer="1510" from-port="0" to-layer="1511" to-port="1"/>
		<edge from-layer="1511" from-port="2" to-layer="1513" to-port="0"/>
		<edge from-layer="1512" from-port="0" to-layer="1513" to-port="1"/>
		<edge from-layer="1513" from-port="2" to-layer="1515" to-port="0"/>
		<edge from-layer="1514" from-port="0" to-layer="1515" to-port="1"/>
		<edge from-layer="1515" from-port="2" to-layer="1516" to-port="0"/>
		<edge from-layer="1516" from-port="1" to-layer="1518" to-port="0"/>
		<edge from-layer="1516" from-port="1" to-layer="1531" to-port="0"/>
		<edge from-layer="1516" from-port="1" to-layer="1536" to-port="0"/>
		<edge from-layer="1517" from-port="0" to-layer="1518" to-port="1"/>
		<edge from-layer="1518" from-port="2" to-layer="1519" to-port="0"/>
		<edge from-layer="1519" from-port="1" to-layer="1521" to-port="0"/>
		<edge from-layer="1520" from-port="0" to-layer="1521" to-port="1"/>
		<edge from-layer="1521" from-port="2" to-layer="1522" to-port="0"/>
		<edge from-layer="1522" from-port="1" to-layer="1523" to-port="0"/>
		<edge from-layer="1522" from-port="1" to-layer="1528" to-port="0"/>
		<edge from-layer="1523" from-port="1" to-layer="1524" to-port="0"/>
		<edge from-layer="1524" from-port="1" to-layer="1526" to-port="0"/>
		<edge from-layer="1525" from-port="0" to-layer="1526" to-port="1"/>
		<edge from-layer="1525" from-port="0" to-layer="1528" to-port="2"/>
		<edge from-layer="1526" from-port="2" to-layer="1527" to-port="0"/>
		<edge from-layer="1527" from-port="1" to-layer="1528" to-port="1"/>
		<edge from-layer="1528" from-port="3" to-layer="1585" to-port="1"/>
		<edge from-layer="1529" from-port="0" to-layer="1530" to-port="1"/>
		<edge from-layer="1530" from-port="2" to-layer="1537" to-port="0"/>
		<edge from-layer="1531" from-port="1" to-layer="1532" to-port="0"/>
		<edge from-layer="1532" from-port="1" to-layer="1534" to-port="0"/>
		<edge from-layer="1533" from-port="0" to-layer="1534" to-port="1"/>
		<edge from-layer="1533" from-port="0" to-layer="1536" to-port="2"/>
		<edge from-layer="1534" from-port="2" to-layer="1535" to-port="0"/>
		<edge from-layer="1535" from-port="1" to-layer="1536" to-port="1"/>
		<edge from-layer="1536" from-port="3" to-layer="1537" to-port="1"/>
		<edge from-layer="1537" from-port="2" to-layer="1539" to-port="0"/>
		<edge from-layer="1538" from-port="0" to-layer="1539" to-port="1"/>
		<edge from-layer="1539" from-port="2" to-layer="1541" to-port="0"/>
		<edge from-layer="1540" from-port="0" to-layer="1541" to-port="1"/>
		<edge from-layer="1541" from-port="2" to-layer="1543" to-port="0"/>
		<edge from-layer="1542" from-port="0" to-layer="1543" to-port="1"/>
		<edge from-layer="1543" from-port="2" to-layer="1544" to-port="0"/>
		<edge from-layer="1544" from-port="1" to-layer="1559" to-port="0"/>
		<edge from-layer="1544" from-port="1" to-layer="1564" to-port="0"/>
		<edge from-layer="1544" from-port="1" to-layer="1546" to-port="0"/>
		<edge from-layer="1545" from-port="0" to-layer="1546" to-port="1"/>
		<edge from-layer="1546" from-port="2" to-layer="1547" to-port="0"/>
		<edge from-layer="1547" from-port="1" to-layer="1549" to-port="0"/>
		<edge from-layer="1548" from-port="0" to-layer="1549" to-port="1"/>
		<edge from-layer="1549" from-port="2" to-layer="1550" to-port="0"/>
		<edge from-layer="1550" from-port="1" to-layer="1551" to-port="0"/>
		<edge from-layer="1550" from-port="1" to-layer="1556" to-port="0"/>
		<edge from-layer="1551" from-port="1" to-layer="1552" to-port="0"/>
		<edge from-layer="1552" from-port="1" to-layer="1554" to-port="0"/>
		<edge from-layer="1553" from-port="0" to-layer="1554" to-port="1"/>
		<edge from-layer="1553" from-port="0" to-layer="1556" to-port="2"/>
		<edge from-layer="1554" from-port="2" to-layer="1555" to-port="0"/>
		<edge from-layer="1555" from-port="1" to-layer="1556" to-port="1"/>
		<edge from-layer="1556" from-port="3" to-layer="1585" to-port="2"/>
		<edge from-layer="1557" from-port="0" to-layer="1558" to-port="1"/>
		<edge from-layer="1558" from-port="2" to-layer="1565" to-port="0"/>
		<edge from-layer="1559" from-port="1" to-layer="1560" to-port="0"/>
		<edge from-layer="1560" from-port="1" to-layer="1562" to-port="0"/>
		<edge from-layer="1561" from-port="0" to-layer="1562" to-port="1"/>
		<edge from-layer="1561" from-port="0" to-layer="1564" to-port="2"/>
		<edge from-layer="1562" from-port="2" to-layer="1563" to-port="0"/>
		<edge from-layer="1563" from-port="1" to-layer="1564" to-port="1"/>
		<edge from-layer="1564" from-port="3" to-layer="1565" to-port="1"/>
		<edge from-layer="1565" from-port="2" to-layer="1567" to-port="0"/>
		<edge from-layer="1566" from-port="0" to-layer="1567" to-port="1"/>
		<edge from-layer="1567" from-port="2" to-layer="1569" to-port="0"/>
		<edge from-layer="1568" from-port="0" to-layer="1569" to-port="1"/>
		<edge from-layer="1569" from-port="2" to-layer="1571" to-port="0"/>
		<edge from-layer="1570" from-port="0" to-layer="1571" to-port="1"/>
		<edge from-layer="1571" from-port="2" to-layer="1572" to-port="0"/>
		<edge from-layer="1572" from-port="1" to-layer="1574" to-port="0"/>
		<edge from-layer="1573" from-port="0" to-layer="1574" to-port="1"/>
		<edge from-layer="1574" from-port="2" to-layer="1575" to-port="0"/>
		<edge from-layer="1575" from-port="1" to-layer="1577" to-port="0"/>
		<edge from-layer="1576" from-port="0" to-layer="1577" to-port="1"/>
		<edge from-layer="1577" from-port="2" to-layer="1578" to-port="0"/>
		<edge from-layer="1578" from-port="1" to-layer="1579" to-port="0"/>
		<edge from-layer="1578" from-port="1" to-layer="1584" to-port="0"/>
		<edge from-layer="1579" from-port="1" to-layer="1580" to-port="0"/>
		<edge from-layer="1580" from-port="1" to-layer="1582" to-port="0"/>
		<edge from-layer="1581" from-port="0" to-layer="1582" to-port="1"/>
		<edge from-layer="1581" from-port="0" to-layer="1584" to-port="2"/>
		<edge from-layer="1582" from-port="2" to-layer="1583" to-port="0"/>
		<edge from-layer="1583" from-port="1" to-layer="1584" to-port="1"/>
		<edge from-layer="1584" from-port="3" to-layer="1585" to-port="3"/>
		<edge from-layer="1585" from-port="4" to-layer="1587" to-port="0"/>
		<edge from-layer="1586" from-port="0" to-layer="1587" to-port="1"/>
		<edge from-layer="1587" from-port="2" to-layer="1589" to-port="0"/>
		<edge from-layer="1588" from-port="0" to-layer="1589" to-port="1"/>
		<edge from-layer="1589" from-port="2" to-layer="1591" to-port="0"/>
		<edge from-layer="1590" from-port="0" to-layer="1591" to-port="1"/>
		<edge from-layer="1591" from-port="2" to-layer="1592" to-port="0"/>
		<edge from-layer="1592" from-port="1" to-layer="1593" to-port="0"/>
		<edge from-layer="1592" from-port="1" to-layer="1598" to-port="0"/>
		<edge from-layer="1593" from-port="1" to-layer="1594" to-port="0"/>
		<edge from-layer="1594" from-port="1" to-layer="1596" to-port="0"/>
		<edge from-layer="1595" from-port="0" to-layer="1596" to-port="1"/>
		<edge from-layer="1595" from-port="0" to-layer="1598" to-port="2"/>
		<edge from-layer="1596" from-port="2" to-layer="1597" to-port="0"/>
		<edge from-layer="1597" from-port="1" to-layer="1598" to-port="1"/>
		<edge from-layer="1598" from-port="3" to-layer="1601" to-port="0"/>
		<edge from-layer="1599" from-port="0" to-layer="1600" to-port="1"/>
		<edge from-layer="1600" from-port="2" to-layer="1601" to-port="1"/>
		<edge from-layer="1601" from-port="2" to-layer="1603" to-port="0"/>
		<edge from-layer="1602" from-port="0" to-layer="1603" to-port="1"/>
		<edge from-layer="1603" from-port="2" to-layer="1605" to-port="0"/>
		<edge from-layer="1604" from-port="0" to-layer="1605" to-port="1"/>
		<edge from-layer="1605" from-port="2" to-layer="1607" to-port="0"/>
		<edge from-layer="1606" from-port="0" to-layer="1607" to-port="1"/>
		<edge from-layer="1607" from-port="2" to-layer="1608" to-port="0"/>
		<edge from-layer="1608" from-port="1" to-layer="1614" to-port="0"/>
		<edge from-layer="1608" from-port="1" to-layer="1609" to-port="0"/>
		<edge from-layer="1609" from-port="1" to-layer="1610" to-port="0"/>
		<edge from-layer="1610" from-port="1" to-layer="1612" to-port="0"/>
		<edge from-layer="1611" from-port="0" to-layer="1612" to-port="1"/>
		<edge from-layer="1611" from-port="0" to-layer="1614" to-port="2"/>
		<edge from-layer="1612" from-port="2" to-layer="1613" to-port="0"/>
		<edge from-layer="1613" from-port="1" to-layer="1614" to-port="1"/>
		<edge from-layer="1614" from-port="3" to-layer="1616" to-port="0"/>
		<edge from-layer="1615" from-port="0" to-layer="1616" to-port="1"/>
		<edge from-layer="1616" from-port="2" to-layer="1618" to-port="0"/>
		<edge from-layer="1617" from-port="0" to-layer="1618" to-port="1"/>
		<edge from-layer="1618" from-port="2" to-layer="1619" to-port="0"/>
		<edge from-layer="1619" from-port="1" to-layer="1620" to-port="0"/>
		<edge from-layer="1620" from-port="2" to-layer="1621" to-port="0"/>
		<edge from-layer="1621" from-port="1" to-layer="1623" to-port="0"/>
		<edge from-layer="1622" from-port="0" to-layer="1623" to-port="1"/>
		<edge from-layer="1623" from-port="2" to-layer="1625" to-port="0"/>
		<edge from-layer="1624" from-port="0" to-layer="1625" to-port="1"/>
		<edge from-layer="1625" from-port="2" to-layer="1628" to-port="0"/>
		<edge from-layer="1626" from-port="0" to-layer="1628" to-port="1"/>
		<edge from-layer="1627" from-port="0" to-layer="1628" to-port="2"/>
		<edge from-layer="1628" from-port="3" to-layer="1629" to-port="0"/>
	</edges>
	<meta_data>
		<MO_version value="2022.1.0-7019-cdb9bec7210-releases/2022/1"/>
		<Runtime_version value="2022.1.0-7019-cdb9bec7210-releases/2022/1"/>
		<legacy_path value="False"/>
		<cli_parameters>
			<caffe_parser_path value="DIR"/>
			<compress_fp16 value="False"/>
			<data_type value="FP32"/>
			<disable_nhwc_to_nchw value="False"/>
			<disable_omitting_optional value="False"/>
			<disable_resnet_optimization value="False"/>
			<disable_weights_compression value="False"/>
			<enable_concat_optimization value="False"/>
			<enable_flattening_nested_params value="False"/>
			<enable_ssd_gluoncv value="False"/>
			<extensions value="DIR"/>
			<framework value="onnx"/>
			<freeze_placeholder_with_value value="{}"/>
			<input value="blur_image"/>
			<input_model value="DIR\deblurgan-v2.onnx"/>
			<input_model_is_text value="False"/>
			<input_shape value="[1, 3, 736, 1312]"/>
			<k value="DIR\CustomLayersMapping.xml"/>
			<layout value="blur_image(NCHW)"/>
			<layout_values value="{'blur_image': {'source_layout': 'NCHW', 'target_layout': None, 'is_input': True}}"/>
			<legacy_mxnet_model value="False"/>
			<log_level value="ERROR"/>
			<mean_scale_values value="{'blur_image': {'mean': array([127.5]), 'scale': array([127.5])}}"/>
			<mean_values value="blur_image[127.5]"/>
			<model_name value="deblurgan-v2"/>
			<output value="['deblur_image']"/>
			<output_dir value="DIR"/>
			<placeholder_data_types value="{}"/>
			<placeholder_shapes value="{'blur_image': (1, 3, 736, 1312)}"/>
			<progress value="False"/>
			<remove_memory value="False"/>
			<remove_output_softmax value="False"/>
			<reverse_input_channels value="True"/>
			<save_params_from_nd value="False"/>
			<scale_values value="blur_image[127.5]"/>
			<silent value="False"/>
			<source_layout value="()"/>
			<static_shape value="False"/>
			<stream_output value="False"/>
			<target_layout value="()"/>
			<transform value=""/>
			<use_legacy_frontend value="False"/>
			<use_new_frontend value="False"/>
			<unset unset_cli_parameters="batch, counts, disable_fusing, finegrain_fusing, input_checkpoint, input_meta_graph, input_proto, input_symbol, mean_file, mean_file_offsets, nd_prefix_name, pretrained_model_name, saved_model_dir, saved_model_tags, scale, tensorboard_logdir, tensorflow_custom_layer_libraries, tensorflow_custom_operations_config_update, tensorflow_object_detection_api_pipeline_config, tensorflow_use_custom_operations_config, transformations_config"/>
		</cli_parameters>
	</meta_data>
</net>
